src/models/saves/UNet.debugging_1.pth (torch_old, 418826 bytes, 40 tensors)

layers.0.conv.0.weight f4 [32, 3, 3, 3]
0.12113104 0.11130409 -0.0074011013 -0.15814786 -0.06263866 0.15109485 0.17188707 -0.10679504
-0.13400349 -0.06589656 0.17717358 0.01297675 -0.10710031 -0.008736584 -0.11116655 0.065888874
-0.14840597 0.10100214 -0.086498424 0.093356796 -0.16623002 -0.08505227 -0.06614431 0.06449197
-0.12425767 0.08020455 -0.014244292 -0.0750951 -0.026089199 0.05389662 0.008162068 0.12978423
-0.07908766 -0.16966286 -0.06801996 0.1499584 -0.036049973 -0.100065775 -0.12307225 0.10066722
-0.03489985 0.1372226 0.10117759 -0.15606415 -0.09545486 -0.14296488 0.1419986 -0.006320971
-0.1304518 -0.15923452 0.013949981 0.12713723 0.02618117 -0.16276179 -0.17054714 -0.01183423
-0.15077765 0.060416125 0.18998757 0.06282328 -0.016403938 0.08193163 0.1815339 0.13965534
-0.0058133854 -0.13526171 -0.076792285 0.03325884 0.0048276735 -0.14996687 0.13172746 0.012612158
0.13820012 -0.11028734 -0.08006332 0.100128144 0.06416059 0.08340484 0.107039906 -0.13849945
0.19985843 0.15680635 -0.0892261 -0.16777417 -0.15611544 -0.019596009 0.035080913 -0.061033823
-0.08160213 -0.08713527 -0.07547374 -0.108473025 0.12732503 -0.12593377 -0.013076914 0.07967616
0.10465105 0.0025600896 0.091976106 -0.03756138 -0.06654269 -0.160328 0.05869267 0.05753349
0.09703008 -0.015454672 0.04530945 -0.047123335 -0.0382107 -0.18076041 0.15022331 -0.1767349
0.009551453 0.09959356 -0.05438882 -0.06539606 -0.011001143 -0.16211496 -0.01987268 -0.042642787
-0.066007674 0.005504132 0.12146661 0.081220135 0.09332515 -0.12292727 0.16343628 -0.09481066
-0.15431084 -0.0592657 -0.023545282 -0.20237942 -0.13021038 -0.20996827 -0.0167698 0.16972701
0.0986999 0.06367005 -0.11328703 0.07308533 -0.0235934 0.18104808 -0.044438105 0.049805075
0.12979114 0.14603487 -0.075522974 0.029805204 0.11089871 -0.097798124 0.11668794 -0.15087011
-0.11465612 -0.019847075 0.091217585 0.06441576 -0.085849054 -0.055266373 0.0928261 0.14382344
0.044988412 0.13331516 0.05132376 -0.0034562387 0.12555575 0.026475245 0.1614805 -0.010426776
0.059451155 -0.15118217 0.09960332 0.14242277 -0.045660328 0.17510794 0.15325184 0.19548042
0.1253224 0.1884871 0.18242791 0.16728988 -0.026294451 0.060032997 -0.092878476 -0.09019187
-0.113080844 0.05440327 0.0810414 -0.1447847 -0.11528586 -0.017677858 -0.04381159 0.08861854
-0.0152946925 0.10882837 -0.07410847 -0.09194744 -0.06963379 0.036779605 -0.15483916 -0.08669714
-0.084540345 -0.01705111 -0.01627002 0.061511923 0.083861105 0.21174207 0.042513117 0.06642787
-0.023396358 -0.13471942 0.18866046 -0.03613447 0.1502163 0.06173177 0.15589534 0.12017898
0.14828168 -0.14110453 0.17523089 -0.012017556 -0.020086294 0.053249773 -0.031722374 0.051205147
0.06735809 0.018951414 0.0926918 -0.1129144 0.1752488 0.096024565 -0.055087723 0.09922644
-0.18315715 0.014351259 -0.030686924 0.03696754 0.11133143 0.10486043 0.17315307 -0.1429966
0.16368517 -0.025741037 -0.058129363 0.07267799 -0.07336549 0.16376479 0.09669883 -0.032084838
0.12086944 0.17689998 -0.14184655 -0.12589273 0.066742465 0.060731504 0.12017276 0.15472244
00000000: 8d13 f83d 66f3 e33d f084 f2bb 83f1 21be
00000010: b348 80bd 9cb8 1a3e 2a03 303e 5cb7 dabd
00000020: 3638 09be c7f4 86bd fe6c 353e 6f9c 543c
00000030: 6857 dbbd e423 0fbc 4aab e3bd bff0 863d
00000040: bcf7 17be 36da ce3d 1626 b1bd d931 bf3d
00000050: 3438 2abe e22f aebd ab76 87bd 5e14 843d
00000060: ce7a febd 4842 a43d e460 69bc 76cb 99bd
00000070: 04b9 d5bc b4c2 5c3d 32ba 053c 28e6 043e
00000080: b6f8 a1bd 1abc 2dbe 0c4e 8bbd b28e 193e
00000090: 23a9 13bd 49ef ccbd 4e0d fcbd 9e2a ce3d
000000a0: 25f3 0ebd 1584 0c3e 3236 cf3d 48cf 1fbe
000000b0: d67d c3bd 6365 12be 1568 113e 2620 cfbb
000000c0: 2895 05be 600e 23be 768e 643c 4330 023e
000000d0: e579 d63c 07ab 26be e9a3 2ebe 5ce4 41bc
000000e0: 7565 1abe e676 773d 1a8c 423e 7ea9 803d
000000f0: 8d61 86bc c5cb a73d 06e4 393e cf01 0f3e
00000100: 367e bebb 0c82 0abe 4645 9dbd 6c3a 083d
00000110: 7631 9e3b ea90 19be 90e3 063e 3aa3 4e3c
00000120: 5584 0d3e 54de e1bd 3df8 a3bd fc0f cd3d
00000130: a166 833d 28d0 aa3d bd37 db3d cdd2 0dbe
00000140: b0a7 4c3e d891 203e 2cbc b6bd fecc 2bbe
00000150: badc 1fbe cf87 a0bc 01b1 0f3d 9afe 79bd
00000160: 041f a7bd fa73 b2bd fa91 9abd 1b27 debd
00000170: 7e61 023e c8f4 00be 8d40 56bc 412d a33d
00000180: 4a53 d63d 2dc7 273b f85d bc3d f6d9 19bd
00000190: 8947 88bd 062d 24be ba67 703d 3da8 6b3d
000001a0: b5b7 c63d 9835 7dbc 6796 393d 6604 41bd
000001b0: d382 1cbd 4219 39be 24d4 193e fef9 34be
000001c0: b37d 1c3c b5f7 cb3d d0c6 5ebd 5fee 85bd
000001d0: 233e 34bc 7701 26be 08cc a2bc 34aa 2ebd
000001e0: 082f 87bd 015c b43b 7cc3 f83d be56 a63d
000001f0: 4221 bf3d 4bc1 fbbd d75b 273e 172c c2bd
00000200: a903 1ebe 97c0 72bd 09e2 c0bc 8d3c 4fbe
00000210: df55 05be ec01 57be d260 89bc ebcc 2d3e
00000220: 2c23 ca3d 7165 823d 0803 e8bd c3ad 953d
00000230: f246 c1bc ab64 393e bb04 36bd 6800 4c3d
00000240: f8e7 043e 2a8a 153e caab 9abd 0b2a f43c
00000250: dd1e e33d 624a c8bd 16fa ee3d b27d 1abe
00000260: d4d0 eabd 5596 a2bc 49d0 ba3d 69ec 833d
00000270: a1d1 afbd fe5e 62bd 9c1b be3d 7446 133e
00000280: c545 383d c583 083e dd38 523d 1082 62bb
00000290: b091 003e 9de2 d83c 255b 253e 11d5 2abc
000002a0: 0e83 733d 80cf 1abe d3fc cb3d 46d7 113e
000002b0: 5306 3bbd 7f4f 333e 0dee 1c3e 052c 483e
000002c0: 8454 003e c302 413e 62ce 3a3e 0a4e 2b3e
000002d0: 7667 d7bc 29e5 753d 1237 bebd 84b6 b8bd
000002e0: ee96 e7bd f7d5 5e3d 09f9 a53d 7142 14be
000002f0: fe1a ecbd 28d1 90bc c873 33bd a37d b53d
00000300: 9796 7abc 69e1 de3d 2ec6 97bd f04e bcbd
00000310: 299c 8ebd 36a6 163d 288e 1ebe 458e b1bd
00000320: 7d23 adbd c5ae 8bbc b448 85bc edf3 7b3d
00000330: 5fbf ab3d ead2 583e 3c22 2e3d 560b 883d
00000340: b8a9 bfbc e3f3 09be 3530 413e bd01 14bd
00000350: 4dd2 193e 74da 7c3d 07a3 1f3e 6620 f63d
00000360: 27d7 173e b57d 10be ba6f 333e 48e5 44bc
00000370: 038c a4bc 6f1c 5a3d 52ef 01bd 7dbc 513d
00000380: 0af3 893d ff3f 9b3c 33d5 bd3d aa3f e7bd
00000390: 6c74 333e 87a8 c43d aaa3 61bd 3b37 cb3d
000003a0: 8c8d 3bbe 8b21 6b3c 2563 fbbc 466b 173d
000003b0: bc01 e43d 11c1 d63d 0a4f 313e b36d 12be
000003c0: 169d 273e dede d2bc 0e19 6ebd 33d8 943d
000003d0: a540 96bd f5b1 273e 090a c63d 646b 03bd
000003e0: 668a f73d 4525 353e 3940 11be 06ea 00be
000003f0: 46b0 883d 99c1 783d 231d f63d 8f6f 1e3e

layers.0.conv.0.bias f4 [32]
-0.15033513 0.10457126 -0.13779116 -0.13006492 -0.13264453 0.032026526 -0.06754412 0.027308358
0.06565628 -0.14184321 -0.021999333 0.106769346 -0.087910116 0.010755382 -0.09502053 -0.17590256
0.0052026347 -0.12905787 -0.08121284 -0.0817479 -0.15984876 0.05187343 -0.00057313475 -0.035018392
-0.07832862 0.05630905 -0.10521638 -0.038163994 -0.029715149 -0.02312459 -0.13534525 -0.19100209
00000000: 74f1 19be 7529 d63d 2019 0dbe bd2f 05be
00000010: f8d3 07be 3f2e 033d 9254 8abd c7b5 df3c
00000020: cd76 863d 593f 11be f237 b4bc e3a9 da3d
00000030: 380a b4bd 5737 303c 209a c2bd cd1f 34be
00000040: dd7a aa3b bf27 04be eb52 a6bd 716b a7bd
00000050: 65af 23be 3c79 543d 6c3e 16ba 726f 0fbd
00000060: c16a a0bd 52a4 663d af7b d7bd d951 1cbd
00000070: 2f6d f3bc c86f bdbc f297 0abe 0d96 43be

layers.0.conv.1.weight f4 [32]
0.9838065 0.9817159 1.0176483 0.998321 1.0008973 1.0134003 1.004808 1.0073239
1.0265483 1.0081381 1.0042241 1.0124772 0.9852053 1.0090632 0.9930166 0.9856262
1.0000532 1.0160072 1.0006713 0.994049 1.0092106 1.0040913 0.9811164 1.0032221
1.001948 1.0217748 0.9774987 0.9942186 1.0016321 0.98451257 1.0039139 1.0025865
00000000: beda 7b3f bc51 7b3f 4d42 823f f791 7f3f
00000010: 671d 803f 1ab7 813f 8c9d 803f fdef 803f
00000020: ef65 833f ab0a 813f 6a8a 803f da98 813f
00000030: 6a36 7c3f fc28 813f 5636 7e3f 0052 7c3f
00000040: be01 803f 860c 823f ff15 803f ff79 7e3f
00000050: d02d 813f 1086 803f 722a 7b3f 9569 803f
00000060: d53f 803f 84c9 823f 5b3d 7a3f 1c85 7e3f
00000070: 7b35 803f 0409 7c3f 4080 803f c154 803f

layers.0.conv.1.bias f4 [32]
-0.018695671 -0.010073868 0.01580798 0.009812246 -0.01305043 -0.0040796422 0.011942345 0.010507236
0.012415228 0.019912016 -0.006151138 0.0035086998 -0.031094862 0.006555138 0.002965786 -0.011797949
0.0071693156 -0.0011667779 -0.0038954061 0.013732328 -0.009738055 -0.003996328 -0.01352097 0.016361725
0.011921393 0.004364924 -0.012285838 0.0133029055 -0.022899363 -0.017855182 -0.011300664 -0.0021849757
00000000: aa27 99bc dd0c 25bc bd7f 813c 8bc3 203c
00000010: 79d1 55bc 85ae 85bb d3a9 433c 8b26 2c3c
00000020: 3e69 4b3c 861e a33c 7c8f c9bb 37f2 653b
00000030: a7ba febc 7ccc d63b a25d 423b 2f4c 41bc
00000040: 94ec ea3b 92ee 98ba 124a 7fbb 8ffd 603c
00000050: 5d8c 1fbc a1f3 82bb 0f87 5dbc 0609 863c
00000060: f251 433c a307 8f3b 8a4a 49bc 6ef4 593c
00000070: 7297 bbbc 0845 92bc 6c26 39bc cf31 0fbb

layers.0.conv.1.running_mean f4 [32]
-0.3488662 -0.27468342 0.22207695 -0.43219537 -0.86293876 0.6647818 0.76512533 0.36276346
0.57282907 0.46532413 0.5632231 0.6223513 -0.3149695 0.31149238 0.5173907 0.050750207
0.59624594 0.5055326 -0.6914378 -0.47597617 -0.59682524 0.41546422 0.12698837 -0.7302376
-0.59548247 0.6135863 0.0826908 -0.34109405 -0.25183812 -0.32505238 -0.8180746 -1.0053295
00000000: 979e b2be 4ea3 8cbe 2468 633e b648 ddbe
00000010: 8ee9 5cbf 242f 2a3f 41df 433f 22bc b93e
00000020: eda4 123f f73e ee3e 642f 103f 6a52 1f3f
00000030: af43 a1be ee7b 9f3e b873 043f 73df 4f3d
00000040: 93a3 183f 966a 013f 1102 31bf 26b3 f3be
00000050: 8ac9 18bf bab7 d43e 3d09 023e daf0 3abf
00000060: 8a71 18bf fe13 1d3f cb59 a93d e1a3 aebe
00000070: edf0 80be 446d a6be 566d 51bf a3ae 80bf

layers.0.conv.1.running_var f4 [32]
0.011011281 0.032339882 0.032443978 0.021814842 0.11885772 0.08958522 0.16064586 0.02970134
0.058056116 0.08523507 0.080159456 0.061887946 0.015786344 0.022126442 0.08618298 0.013057948
0.08259574 0.09328851 0.08442393 0.038673654 0.04545313 0.03068324 0.01017551 0.11214735
0.06101891 0.07114298 0.0113700265 0.022014262 0.015939405 0.02622757 0.10341178 0.15009572
00000000: a968 343c d376 043d fae3 043d 0ab5 b23c
00000010: ad6b f33d 7578 b73d 5980 243e 3950 f33c
00000020: 40cc 6d3d b98f ae3d a42a a43d 377e 7d3d
00000030: 5d52 813c 8342 b53c b480 b03d 01f1 553c
00000040: f527 a93d 0c0e bf3d 74e6 ac3d 4468 1e3d
00000050: 102d 3a3d 6b5b fb3c 2fb7 263c 83ad e53d
00000060: f7ee 793d 69b3 913d 5949 3a3c 4157 b43c
00000070: 5b93 823c 33db d63c 8ec9 d33d b1b2 193e

layers.0.conv.3.weight f4 [32, 32, 3, 3]
0.018041559 -0.04749327 -0.030941471 0.013581482 0.035015125 -0.02802642 0.011914174 -0.01750684
-0.06476938 -0.050871223 0.015084629 0.038488872 -0.0494595 0.047368146 -0.058249015 -0.063820325
-0.047567505 0.040698495 -0.025098102 -0.00934061 -0.020702094 -0.039386857 0.025981126 -0.031595815
0.008898217 -0.010412018 0.022443349 0.010881953 -0.04875758 -0.0056902086 0.019213248 -0.0044663306
-0.004624811 0.009104342 0.03098473 -0.020015167 -0.048520844 -0.032581225 0.016987393 -0.06032286
0.026405418 0.016669013 0.04504698 -0.059714153 -0.04685526 0.009919124 -0.043418173 0.021996971
-0.002292774 -0.008930248 -0.01604119 -0.02526287 -0.014511766 -0.0035859346 -0.053650893 0.008019294
-0.036070146 -0.0100848265 0.04858195 -0.024184104 -0.030828731 -0.016141152 0.06342035 0.023510087
0.011109555 0.01833486 0.053711165 -0.048357192 -0.017749662 0.052411508 0.0069065318 -0.024115983
0.027694229 0.011054826 0.035975967 -0.024574855 0.012556697 -0.00741198 0.014721662 0.048796248
0.020857578 0.047535107 -0.007657094 -0.02793135 0.04982744 -0.022084294 0.0031872687 -0.035234775
0.06563785 0.020439366 0.033152808 -0.023027483 -0.020179808 0.041898668 0.028196856 -0.04652595
-0.051999975 -0.04290375 0.04600418 -0.012350499 0.017300067 0.013575383 -0.04407646 -0.023200814
0.016191214 0.0007097251 -0.055732854 0.041889153 0.035785034 -0.03118162 0.044665977 0.040617257
-0.020226566 0.052874442 0.03133835 0.06469065 -0.04312385 -0.024726324 -0.037378613 -0.009182326
0.04932035 0.018125672 0.016115483 0.024304748 -0.03368764 0.0016515735 -0.010471017 -0.025682949
0.05576176 -0.025893297 -0.027204875 0.023327418 0.022646496 0.028438043 -0.01908742 -0.033412598
-0.010904067 -0.050062347 -0.042748548 -0.042521957 0.046206187 0.013487012 -0.008904745 -0.02335399
-0.021852998 -0.034316126 0.0014386806 0.035751004 0.028731711 -0.02655192 -0.006696911 0.046793874
-0.024162514 0.0037899113 -0.046896603 -0.0016498603 -0.040414322 0.033930913 0.050745744 0.018694317
-0.0014787815 0.045671348 -0.050985515 -0.011921975 -0.07190534 -0.0622708 0.052731134 0.011957301
-0.06314656 0.028403843 -0.0070396187 0.011914272 -0.0021047734 0.014885027 -0.06305909 -0.038916294
-0.027438572 0.03863589 -0.0039771134 -0.00080508884 -0.039287664 0.017807204 0.032020934 -0.060564082
0.0204868 -0.055822667 -0.05800721 0.013747637 -0.051236175 -0.010704704 0.0033907036 -0.00796571
0.028994028 0.05863422 -0.011520794 -0.0058625047 0.0046286522 -0.04855173 0.038484257 -0.03393971
0.026297221 -0.02025894 0.06199085 -0.026576119 -0.047128394 0.012360412 -0.010611464 -0.058297426
0.031431787 0.007141611 0.00038229572 0.017828515 -0.064549245 -0.006223578 -0.03988873 -0.054416317
0.0141562205 -0.045362253 0.016802698 -0.00029781688 0.013808188 -0.050647143 0.00056529196 0.009380539
-0.05605736 0.021841928 -0.038619988 -0.04904164 -0.021000618 0.040215254 -0.003911405 0.04986523
-0.04448618 -0.008763251 0.037400592 7.1166374e-05 0.010066562 -0.015288827 -0.019688746 0.034413267
0.03430306 -0.029872373 0.03302282 -0.046831563 0.03302844 -0.013833468 0.04148254 -0.048632972
0.004239817 0.042487364 0.016548006 0.032209307 -0.046001036 -0.019690104 -0.03621348 0.007880089
00000000: e4cb 933c 4e88 42bd f878 fdbc dd84 5e3c
00000010: 056c 0f3d aa97 e5bc ab33 433c 816a 8fbc
00000020: cfa5 84bd 585e 50bd 8525 773c 82a6 1d3d
00000030: 0b96 4abd 1a05 423d 8596 6ebd 3bb4 82bd
00000040: 25d6 42bd 77b3 263d 899a cdbc 5c09 19bc
00000050: 7097 a9bc 1d54 21bd 5fd6 d43c 9d6a 01bd
00000060: d4c9 113c 2b97 2abc 1ddb b73c 384a 323c
00000070: 07b6 47bd ee74 babb 1a65 9d3c 4c5a 92bb
00000080: ba8b 97bb 612a 153c b0d3 fd3c d9f6 a3bc
00000090: cbbd 46bd e473 05bd 2529 8b3c 1a15 77bd
000000a0: 2d50 d83c 748d 883c 2f83 383d d496 74bd
000000b0: 4deb 3fbd d283 223c 41d7 31bd fe32 b43c
000000c0: 5d42 16bb 2d50 12bc d068 83bc 14f4 cebc
000000d0: c2c2 6dbc 0002 6bbb 0ac1 5bbd 5b63 033c
000000e0: 4abe 13bd d43a 25bc defd 463d be1d c6bc
000000f0: 898c fcbc 733a 84bc 87e2 813d 3a98 c03c
00000100: da04 363c fd32 963c 3d00 5c3d 3112 46bd
00000110: bd67 91bc 73ad 563d 3050 e23b e28e c5bc
00000120: 02df e23c 4d1f 353c 895b 133d 3551 c9bc
00000130: 9bba 4d3c 32e0 f2bb 2033 713c 93de 473d
00000140: 83dd aa3c 2cb4 423d 5ce8 fabb 49d0 e4bc
00000150: dc17 4c3d 1fea b4bc 7fe1 503b 5752 10bd
00000160: 236d 863d 7570 a73c 3dcb 073d 22a4 bcbc
00000170: 2050 a5bc f09d 2b3d 18fd e63c ff91 3ebd
00000180: edfd 54bd d8bb 2fbd e16e 3c3d bf59 4abc
00000190: dfb8 8d3c 496b 5e3c 8589 34bd a20f bebc
000001a0: 70a3 843c d80c 3a3a 2248 64bd f693 2b3d
000001b0: 5493 123d 9970 ffbc acf3 363d 485e 263d
000001c0: 2fb2 a5bc df92 583d a45c 003d 887c 843d
000001d0: a2a2 30bd dc8e cabc 511a 19bd 7771 16bc
000001e0: 2304 4a3d 4a7c 943c 9e04 843c c01a c73c
000001f0: 0dfc 09bd 9c79 d83a a18e 2bbc 0c65 d2bc
00000200: 7166 643d 2e1e d4bc c2dc debc 2419 bf3c
00000210: 2585 b93c e6f6 e83c 395d 9cbc a6db 08bd
00000220: f9a6 32bc 2d0e 4dbd 1a19 2fbd 812b 2ebd
00000230: b342 3d3d a1f8 5c3c 35e5 11bc de50 bfbc
00000240: 0f05 b3bc 118f 0cbd 1c92 bc3a a56f 123d
00000250: c45e eb3c 6a83 d9bc c371 dbbb efaa 3f3d
00000260: 77f0 c5bc 2960 783b a716 40bd 2040 d8ba
00000270: 7d89 25bd 24fb 0a3d c5da 4f3d d324 993c
00000280: acd3 c1ba e111 3b3d 30d6 50bd 6354 43bc
00000290: 1b43 93bd ab0f 7fbd 9afc 573d 8ee8 433c
000002a0: fc52 81bd 2daf e83c 9aac e6bb 1434 433c
000002b0: 3df0 09bb 54e0 733c 2025 81bd b166 1fbd
000002c0: dbc6 e0bc ab40 1e3d 7252 82bb 990c 53ba
000002d0: 1aec 20bd 6ae0 913c 6228 033d 0b12 78bd
000002e0: efd3 a73c 4fa6 64bd f898 6dbd c53d 613c
000002f0: 06dd 51bd c862 2fbc 9136 5e3b 9c82 02bc
00000300: e284 ed3c 702a 703d b6c1 3cbc 411a c0bb
00000310: f3ab 973b 2ede 46bd aba1 1d3d 5e04 0bbd
00000320: 456d d73c 14f6 a5bc 1eea 7d3d 29b6 d9bc
00000330: b409 41bd 5383 4a3c b5db 2dbc 48c9 6ebd
00000340: 9ebe 003d 2d04 ea3b dd6e c839 1b0d 923c
00000350: 6532 84bd 28ef cbbb 5d62 23bd a5e3 5ebd
00000360: 7eef 673c c5cd 39bd d0a5 893c 4e24 9cb9
00000370: bd3b 623c 6173 4fbd 1a30 143a d5b0 193c
00000380: 679c 65bd d8ed b23c fe2f 1ebd e3df 48bd
00000390: 7d09 acbc c0b8 243d 3e2b 80bb 7c3f 4c3d
000003a0: 2437 36bd bd93 0fbc 5d31 193d 283f 9538
000003b0: 39ee 243c fd7d 7abc 4b4a a1bc edf4 0c3d
000003c0: 5e81 0c3d e8b6 f4bc f042 073d 74d2 3fbd
000003d0: d448 073d c5a5 62bc 99e9 293d 5e33 47bd
000003e0: 2aee 8a3b 3b07 2e3d af8f 873c e8ed 033d
000003f0: 956b 3cbd 244d a1bc 9654 14bd 7d1b 013c

layers.0.conv.3.bias f4 [32]
0.021252304 0.0017235162 -0.05544692 -0.008613181 -0.04710263 -0.0041377777 0.05351158 0.032952152
-0.011564201 -0.045998048 0.0059528095 -0.027438529 -0.05393124 0.02770586 -0.02547947 -0.048591398
0.02738843 -0.035643864 0.04774795 -0.01861874 0.03421474 0.012828201 0.0503944 0.0487692
-0.00431451 -0.028697174 -0.053335007 -0.0119644385 -0.013950076 0.0041075544 0.044266406 -0.045658063
00000000: 5019 ae3c 9be7 e13a 4f1c 63bd 4d1e 0dbc
00000010: b0ee 40bd 3296 87bb f52e 5b3d d6f8 063d
00000020: c677 3dbc 7368 3cbd c90f c33b c4c6 e0bc
00000030: 01e7 5cbd 66f7 e23c 52ba d0bc c607 47bd
00000040: b35d e03c 4dff 11bd 5b93 433d 5486 98bc
00000050: c124 0c3d 602d 523c 5c6a 4e3d 36c2 473d
00000060: bc60 8dbb 5616 ebbc cf75 5abd 7e06 44bc
00000070: dc8e 64bc aa98 863b b150 353d f303 3bbd

layers.0.conv.4.weight f4 [32]
0.98399764 1.0088625 0.988748 1.0032945 0.9867839 1.000874 1.0162908 0.9780875
1.0044183 0.9998966 0.98606896 0.9854633 0.9865975 0.99306494 1.0013514 1.0053974
0.9825846 1.0016123 0.9940599 0.9775461 0.97170323 0.9864075 0.970323 1.0084187
0.99287313 0.9867653 1.0082312 1.0113785 0.99530184 0.9901001 0.9948754 0.9878602
00000000: 45e7 7b3f 6822 813f 971e 7d3f f46b 803f
00000010: df9d 7c3f a41c 803f d115 823f f163 7a3f
00000020: c790 803f 39f9 7f3f 046f 7c3f 5347 7c3f
00000030: a791 7c3f 8139 7e3f 482c 803f ddb0 803f
00000040: aa8a 7b3f d534 803f b67a 7e3f 7640 7a3f
00000050: 8bc1 783f 3485 7c3f 1767 783f dd13 813f
00000060: ef2c 7e3f a79c 7c3f b80d 813f da74 813f
00000070: 1acc 7e3f 3377 7d3f 27b0 7e3f 68e4 7c3f

layers.0.conv.4.bias f4 [32]
-0.003886168 0.01960404 -0.0011867528 -0.005793633 -0.015446936 0.0026234505 -0.0075083845 -0.0086106155
0.014834728 0.0005171652 -0.026925785 -0.016299838 -0.006205694 -0.0210027 -0.009083674 -0.0338486
-0.0312377 -0.014465357 -0.034544423 -0.010243197 -0.055995096 -0.035036847 -0.014215196 0.0056704427
0.005740459 -0.0030648776 0.010003706 0.010609892 -0.012633349 -0.023369823 -0.011078366 -0.0032817607
00000000: 14af 7ebb a798 a03c d18c 9bba 84d8 bdbb
00000010: 2515 7dbc 32ee 2b3b e508 f6bb 8a13 0dbc
00000020: 5c0d 733c 5e92 073a 7793 dcbc 3d87 85bc
00000030: 2259 cbbb db0d acbc b1d3 14bc d4a4 0abd
00000040: 34e6 ffbc 1b00 6dbc 747e 0dbd 15d3 27bc
00000050: 1d5b 65bd cc82 0fbd dae6 68bc 1fcf b93b
00000060: 761a bc3b 1ddc 48bb 96e6 233c 1dd5 2d3c
00000070: 1bfc 4ebc 1272 bfbc 0982 35bc cf12 57bb

layers.0.conv.4.running_mean f4 [32]
-0.42922008 0.24989776 -1.1166135 0.23224498 -0.91751564 -0.89866954 -1.2858869 -0.17922372
0.4178812 -0.4946976 -0.9677407 0.13961744 0.540363 -0.7822653 -1.0911336 0.3239325
0.28211007 -0.88032746 0.53431416 0.7330417 0.8036214 0.73223495 -0.5157874 0.31736186
0.047175564 0.22216146 0.27754146 0.10705172 0.27696383 -0.83886653 -0.7455894 -0.17514868
00000000: bcc2 dbbe 33e5 7f3e 31ed 8ebf a1d1 6d3e
00000010: 4ee2 6abf 350f 66bf f197 a4bf 6c86 37be
00000020: 86f4 d53e 0149 fdbe dbbd 77bf e0f7 0e3e
00000030: 3b55 0a3f 8a42 48bf 44aa 8bbf 7bda a53e
00000040: bb70 903e 245d 61bf d0c8 083f 9fa8 3b3f
00000050: 22ba 4d3f c073 3b3f a50a 04bf 417d a23e
00000060: 2a3b 413d 4b7e 633e ea19 8e3e ef3d db3d
00000070: 34ce 8d3e f5bf 56bf f2de 3ebf 2d5a 33be

layers.0.conv.4.running_var f4 [32]
0.48672867 0.98291355 1.2459444 0.49196815 0.40738708 0.8941761 0.5846268 0.41804904
0.84730124 1.1661444 1.255129 0.9571804 0.15070352 0.42718092 0.8679219 0.15573576
0.866728 0.84180534 1.005872 0.15781048 0.27272028 0.47949308 0.18461978 0.60566264
0.62759656 0.6521978 0.70890015 0.7333846 0.6426791 1.4545112 0.60490924 1.0591497
00000000: 8034 f93e 39a0 7b3f 1b7b 9f3f 40e3 fb3e
00000010: 0a95 d03e bae8 643f 1aaa 153f 860a d63e
00000020: bce8 583f 3844 953f 11a8 a03f c609 753f
00000030: 0652 1a3e 75b7 da3e 2130 5e3f 3279 1f3e
00000040: e3e1 5d3f 8e80 573f 6ac0 803f 1299 213e
00000050: fea1 8b3e 1e80 f53e f80c 3d3e b50c 1b3f
00000060: 2baa 203f 6ff6 263f 7b7a 353f 18bf 3b3f
00000070: 9e86 243f 6c2d ba3f 55db 1a3f 3892 873f

layers.1.pool.1.conv.0.weight f4 [64, 32, 3, 3]
-0.009770711 -0.01881946 0.03270127 -0.048229046 -0.038867757 0.020509787 -0.047494374 0.051137637
0.015169413 -0.0027840207 -0.055379767 -0.059712715 -0.04747854 -0.00655824 0.0016363672 0.05340261
0.031878248 0.051993955 -0.019455578 -0.022298338 -0.049980648 -0.039566882 0.008026981 0.0017039177
0.007209381 -0.039260957 -0.020766616 0.007194353 0.027809827 -0.05170084 -0.036843143 -0.05924999
0.055247903 -0.042473994 -0.014452969 0.02492712 0.0056852885 -0.010302694 0.000915095 -0.045063443
-0.030675368 0.04424561 0.026492076 0.050125662 -0.004841426 -0.035317425 0.009939856 -0.049323514
-0.04818795 -0.029133605 0.06302021 -0.04645432 0.007599207 -0.05041189 0.033148777 -0.033510875
0.022657169 0.05490827 -0.00086503953 0.060318604 0.023177173 0.040872063 0.030015303 -0.005349279
-0.015009679 -0.0047401753 0.0027267153 -0.021097748 -0.020821054 0.040788766 -0.005604875 -0.04176701
-0.057827942 0.03363696 0.05314735 -0.03269302 -0.033522256 -0.020669822 -0.00381164 0.007264937
-0.012670362 -0.031306632 -0.042918727 -0.034152277 0.01307036 0.014187284 -0.046094105 -0.025251994
0.024834163 -0.015662538 0.03152984 -0.025931217 -0.027380615 0.041484646 -0.025078515 0.042840265
0.045021057 -0.010426141 -0.03742441 0.009623532 0.027378866 -0.03143433 0.015566518 0.01287348
0.008046943 -0.04733263 -0.037709642 -0.008635897 0.010323054 0.040547874 -0.022918861 -0.034301355
-0.06304314 -0.070212945 0.02275575 -0.022579048 0.0010264836 0.049452703 0.015828036 -0.039435685
0.007135123 -0.042931054 -0.010896505 0.05650654 0.057197824 0.00029595575 -0.013727303 -0.02700361
0.008739164 0.017367749 -0.025010608 -0.028285585 0.03217562 0.004738702 -0.012480876 -0.052846868
-0.048404768 -0.036038164 -0.01962307 0.01070958 -0.029548416 -0.028242236 0.03983259 -0.024562268
0.05483634 -0.002030723 0.04797597 -0.027521774 -0.013362671 -0.03806514 0.044678047 -0.013495922
0.012883341 0.019270454 -0.017394815 0.0025999823 0.031157134 0.037235614 0.0020325773 0.035987582
-0.004927952 0.015860151 -0.02815478 -0.024922455 0.021818895 0.010841666 0.028892703 -0.04181815
-0.0028261812 -0.030536048 0.048626482 0.01660946 -0.00893513 -0.0025369423 0.022085212 -0.060120016
-0.024308298 -0.051082578 -0.03322481 -0.052447245 0.009910826 0.033418093 0.04502028 0.023944875
-0.06294084 0.0378494 0.022155385 -0.02590919 0.0113058705 -0.04151792 -0.059624337 -0.020534452
-0.0030194286 -0.025983647 -0.009766783 -0.033274893 0.024304587 -0.03945107 -0.012993878 0.025018327
0.004466144 -0.04982434 0.010736768 0.0515235 -0.021157844 -0.038469113 0.021659397 0.034886006
-0.010181422 0.011488917 -0.017436543 0.030345518 -0.032677107 -0.03950901 -0.020133598 -0.05232068
0.031794332 -0.039940313 -0.047801584 -0.027266676 0.01591258 -0.004111002 0.009315092 0.043412086
-0.030306593 0.024178838 -0.013031988 -0.024991082 0.01797494 -0.0034059898 0.027017714 -0.054570653
0.0433697 0.02114966 0.058413435 -0.03939823 0.015676735 0.05539037 -0.019160429 -0.03864351
0.055796653 0.04802867 0.040769495 0.014541772 0.0046081245 -0.06207553 0.023323486 -0.05574803
-5.4798056e-05 0.014137231 -0.0032289017 -0.05231706 -0.014491919 -0.04361533 0.010455208 0.0074511454
00000000: 5515 20bc 452b 9abc c4f1 053d d28b 45bd
00000010: cc33 1fbd 2404 a83c 7689 42bd b375 513d
00000020: 2189 783c 1e74 36bb e5d5 62bd 5295 74bd
00000030: dc78 42bd 81e6 d6bb 5f7b d63a b2bc 5a3d
00000040: c492 023d 9df7 543d 4e61 9fbc 01ab b6bc
00000050: 82b8 4cbd e210 22bd 9983 033c fe55 df3a
00000060: ac3c ec3b 19d0 20bd c01e aabc 9bbe eb3b
00000070: 6fd1 e33c 43c4 53bd d6e8 16bd 1eb0 72bd
00000080: a04b 623d 36f9 2dbd 25cc 6cbc f633 cc3c
00000090: a84b ba3b a1cc 28bc fce2 6f3a 7294 38bd
000000a0: e94a fbbc e23a 353d e905 d93c 9150 4d3d
000000b0: d3a4 9ebb 01a9 10bd c7da 223c 7407 4abd
000000c0: ba60 45bd 99a9 eebc bd10 813d e346 3ebd
000000d0: c502 f93b b37c 4ebd 03c7 073d b342 09bd
000000e0: 879b b93c 7ee7 603d d2c3 62ba a410 773d
000000f0: 0ede bd3c 7769 273d a7e2 f53c 0149 afbb
00000100: 28eb 75bc 7953 9bbb b1b2 323b 2fd5 acbc
00000110: ea90 aabc 1f12 273d 19a9 b7bb e213 2bbd
00000120: fedc 6cbd e9c6 093d 09b1 593d 1ee9 05bd
00000130: a24e 09bd c253 a9bc b5cc 79bb b50e ee3b
00000140: 5a97 4fbc 623b 00bd 8ccb 2fbd 42e3 0bbd
00000150: 1025 563c c871 683c 2ccd 3cbd 45dd cebc
00000160: 0471 cb3c b94e 80bc 6f25 013d b46d d4bc
00000170: 504d e0bc ceeb 293d 7571 cdbc 4679 2f3d
00000180: 0068 383d 68d2 2abc 574a 19bd 05ac 1d3c
00000190: a549 e03c 49c1 00bd b50a 7f3c 4aeb 523c
000001a0: 53d7 033c dcdf 41bd 6d75 1abd 947d 0dbc
000001b0: 0722 293c 8715 263d 56c0 bbbc 947f 0cbd
000001c0: c31c 81bd cecb 8fbd 446a ba3c b2f7 b8bc
000001d0: 138b 863a eb8e 4a3d cca9 813c 5087 21bd
000001e0: c0cd e93b 79d8 2fbd 4187 32bc 6773 673d
000001f0: 4448 6a3d 822a 9b39 7be8 60bc ad36 ddbc
00000200: b62e 0f3c cf46 8e3c 0ce3 ccbc 2cb7 e7bc
00000210: 95ca 033d 1d47 9b3b 977c 4cbc f575 58bd
00000220: 1444 46bd c19c 13bd 8fc0 a0bc 3c77 2f3c
00000230: 850f f2bc 435c e7bc 7f27 233d cf36 c9bc
00000240: 129c 603d e115 05bb 7382 443d 5875 e1bc
00000250: 1bef 5abc 31ea 1bbd 5400 373d 001e 5dbc
00000260: a614 533c 12dd 9d3c 927f 8ebc 7764 2a3b
00000270: 3f3d ff3c 5f84 183d fd34 053b b767 133d
00000280: a87a a1bb 26ed 813c daa4 e6bc 2d2a ccbc
00000290: 8abd b23c 3ea1 313c 64b0 ec3c 8249 2bbd
000002a0: 7437 39bb bc26 fabc 902c 473d 9010 883c
000002b0: a764 12bc d442 26bb 0cec b43c 6840 76bd
000002c0: 3222 c7bc f73b 51bd bd16 08bd ecd2 56bd
000002d0: 0461 223c 69e1 083d 2f67 383d 0b28 c43c
000002e0: 21e7 80bd f907 1b3d 367f b53c 823f d4bc
000002f0: 423c 393c b20e 2abd a638 74bd de37 a8bc
00000300: 9be1 45bb a8db d4bc db04 20bc 414b 08bd
00000310: 6a1a c73c 7297 21bd 46e4 54bc 3cf3 cc3c
00000320: bb58 923b 9b14 4cbd 45e9 2f3c 4e0a 533d
00000330: 3753 adbc ca91 1dbd 0c6f b13c a1e4 0e3d
00000340: fbcf 26bc 033c 3c3c 15d7 8ebc 2a97 f83c
00000350: 6ed8 05bd 33d4 21bd 37ef a4bc 364e 56bd
00000360: c63a 023d 7498 23bd 98cb 43bd 5d5e dfbc
00000370: 195b 823c 96b5 86bb 549e 183c dfd0 313d
00000380: 8845 f8bc b312 c63c 1f84 55bc 19ba ccbc
00000390: 2e40 933c 0737 5fbb 4154 dd3c 7a85 5fbd
000003a0: 6da4 313d 0d42 ad3c ed42 6f3d 0a60 21bd
000003b0: 7f6c 803c 03e1 623d 55f6 9cbc a848 1ebd
000003c0: 088b 643d b6b9 443d eafd 263d 9d40 6e3c
000003d0: c0ff 963b e942 7ebd e510 bf3c 0c58 64bd
000003e0: f7d6 65b8 d89f 673c fb9b 53bb 6a4a 56bd
000003f0: 846f 6dbc fda5 32bd 524c 2b3c bd28 f43b

layers.1.pool.1.conv.0.bias f4 [64]
-0.03594272 -0.02253523 0.011241137 0.014685262 -0.058534306 -0.038707063 0.015187541 0.01684802
-0.038556356 -0.020434368 -0.045386683 -0.008806621 0.004697368 0.046985477 0.04900874 0.013233671
-0.025563674 -0.004906804 0.051997866 -0.050085146 0.036818333 -0.0027437415 -0.0023094674 -0.04140571
-0.033442046 -0.009260391 -0.045185197 -0.055609487 -0.0015539259 0.058661036 0.031118779 0.042485796
0.05699487 -0.049022663 -0.0234867 0.046569414 0.048723113 0.052377004 -0.0020279023 -0.055077236
0.05313889 0.042091217 -0.05890939 -0.045016438 -0.047993217 0.0011362327 -0.0034355617 0.005762031
-0.024542438 -0.045008164 -0.023997962 0.020768205 -0.009240124 -0.045825657 0.025487658 0.0430103
-0.033694997 0.05539975 0.029384723 0.019117044 -0.05441461 0.010306996 0.03358368 -0.047902837
00000000: ac38 13bd cd9b b8bc bf2c 383c 749a 703c
00000010: abc1 6fbd 4c8b 1ebd 2ad5 783c dc04 8a3c
00000020: 45ed 1dbd fa65 a7bc 63e7 39bd a549 10bc
00000030: 61ec 993b d873 403d 63bd 483d 0ad2 583c
00000040: e96a d1bc 41c9 a0bb b7fb 543d 1526 4dbd
00000050: d2ce 163d 58d0 33bb 6f5a 17bb 0999 29bd
00000060: 87fa 08bd e5b8 17bc 1d14 39bd c6c6 63bd
00000070: 1aad cbba 8e46 703d cfec fe3c 9605 2e3d
00000080: 7473 693d fdcb 48bd 2e67 c0bc 92bf 3e3d
00000090: e391 473d 4589 563d 8ee6 04bb ab98 61bd
000000a0: 2aa8 593d d767 2c3d f94a 71bd 2863 38bd
000000b0: 8994 44bd a5ed 943a 2927 61bb 6bcf bc3b
000000c0: 390d c9bc 7b5a 38bd 6097 c4bc 1522 aa3c
000000d0: e463 17bc afb3 3bbd 7ecb d03c 912b 303d
000000e0: c403 0abd d9ea 623d 3bb8 f03c 599b 9c3c
000000f0: dbe1 5ebd adde 283c 0a8f 093d c435 44bd

layers.1.pool.1.conv.1.weight f4 [64]
0.97475696 1.0012201 0.996714 0.9993073 0.9934097 1.012213 1.0008066 0.99739915
1.0085081 1.0110652 0.99001926 0.9901979 0.99723214 1.0148561 1.0355992 0.9984536
0.99341655 0.9847859 0.99582344 0.9926396 0.9992826 0.9865425 0.98608226 1.003792
0.99466854 1.0379885 1.027111 1.0092218 0.9973585 0.98725504 0.99695 0.99534386
0.9696462 0.9875873 1.0015268 0.9936479 1.0139328 0.9831561 0.99737805 0.98657167
1.0054617 0.98803234 1.0063306 0.9933609 1.0366789 0.98958373 0.9953654 0.9979206
0.9874429 1.0024225 0.9997045 0.99011064 1.0076436 0.98133695 1.0331885 0.9975494
1.0057863 1.009243 0.97797835 1.012522 0.9969844 1.0119882 0.98648506 0.9844303
00000000: ac89 793f fb27 803f a628 7f3f 9ad2 7f3f
00000010: 1950 7e3f 3290 813f 6e1a 803f 8d55 7f3f
00000020: cb16 813f 966a 813f e771 7d3f 9c7d 7d3f
00000030: 9b4a 7f3f cee6 813f 848e 843f a89a 7f3f
00000040: 8c50 7e3f ee1a 7c3f 49ee 7e3f a11d 7e3f
00000050: fcd0 7f3f 0d8e 7c3f e36f 7c3f 427c 803f
00000060: 99a2 7e3f cfdc 843f 6078 833f 2e2e 813f
00000070: e352 7f3f bfbc 7c3f 1d38 7f3f dbce 7e3f
00000080: bc3a 783f 85d2 7c3f 0832 803f b55f 7e3f
00000090: 8dc8 813f 1eb0 7b3f 2b54 7f3f f68f 7c3f
000000a0: f8b2 803f b0ef 7c3f 71cf 803f e64c 7e3f
000000b0: e5b1 843f 5c55 7d3f 44d0 7e3f b977 7f3f
000000c0: 0fc9 7c3f 614f 803f a2ec 7f3f e477 7d3f
000000d0: 77fa 803f e638 7b3f 853f 843f 665f 7f3f
000000e0: 9bbd 803f e02e 813f ca5c 7a3f 529a 813f
000000f0: 5f3a 7f3f d488 813f 498a 7c3f a003 7c3f

layers.1.pool.1.conv.1.bias f4 [64]
-0.013459277 0.00014247905 -0.012499338 -0.010737337 -0.015743855 -0.04267521 0.016603412 -0.04504802
0.022338249 -0.044169772 -0.04289722 -0.0040456117 -0.03221962 -0.02658843 -0.03192505 -0.036574807
-0.010319579 -0.0010473913 -0.005961786 -0.03552281 0.0044131903 -0.027520126 -0.015763171 -0.042739507
-0.025538065 -0.040697902 -0.019854045 -0.030534029 -0.032919485 -0.026632903 -0.03673305 -0.011205174
-0.031221058 -0.026179735 -0.041521426 -0.03342082 0.00081039267 -0.008915486 -0.00611178 -0.03394247
-0.03114491 -0.006103644 -0.015671069 -0.021333998 0.0054286527 -0.01593112 -0.0062798234 0.012242086
-0.0012559766 -0.007567589 -0.009642142 -0.03962579 -0.010677251 -0.026347203 0.00952591 -0.02872903
0.026874015 0.007107348 -0.026267368 -0.01929559 -0.044062752 -0.03794818 -0.015254799 0.0130566545
00000000: 4d84 5cbc 6e66 1539 06ca 4cbc a8eb 2fbc
00000010: 42f9 80bc 33cc 2ebd e103 883c 4684 38bd
00000020: b4fe b63c 5deb 34bd ffb4 2fbd 0d91 84bb
00000030: b8f8 03bd fbcf d9bc d7c3 02bd 77cf 15bd
00000040: 7413 29bc 9f48 89ba 165b c3bb 5e80 11bd
00000050: 869c 903b e371 e1bc c421 81bc 9f0f 2fbd
00000060: 3435 d1bc d8b2 26bd f3a4 a2bc 8022 fabc
00000070: 95d6 06bd 3f2d dabc 6575 16bd e895 37bc
00000080: 4ec3 ffbc e276 d6bc 5f12 2abd 45e4 08bd
00000090: 8870 543a 4212 12bc 5445 c8bb 4207 0bbd
000000a0: 9c23 ffbc 1401 c8bb 9d60 80bc a3c4 aebc
000000b0: d7e2 b13b fb81 82bc fac6 cdbb 0893 483c
000000c0: 959f a4ba 8af9 f7bb 13fa 1dbc a74e 22bd
000000d0: a3ef 2ebc 17d6 d7bc 9012 1c3c 2559 ebbc
000000e0: e526 dc3c c2e4 e83b aa2e d7bc c911 9ebc
000000f0: 257b 34bd 8d6f 1bbd 44ef 79bc 94eb 553c

layers.1.pool.1.conv.1.running_mean f4 [64]
-0.37673098 -0.5147674 0.16692568 0.4685215 0.38100114 0.032983277 -0.38121656 -0.25641412
-0.25388783 -0.2508612 -0.45482895 0.19090989 0.48681247 0.012009575 -0.76894844 0.007575549
0.06467179 -0.052076064 -0.76977926 0.29724827 0.85216075 -0.13721439 -0.26610705 -0.018052394
0.5855727 -0.7421163 -0.9309017 0.36586753 0.291976 0.468019 0.38615128 0.05406837
-0.51004326 -0.33134663 0.054990705 0.5747724 -0.59618574 0.7194464 0.71207595 0.19018196
0.4541615 0.2615747 -0.15072468 0.33416656 -0.93883187 0.2431046 0.19477698 -0.48162115
-0.12702768 -0.2181938 -0.06509011 0.40246102 -0.32267538 0.5951224 -0.83684254 0.20137244
-0.56829816 -0.18506035 0.20563649 -0.31819046 0.13161865 0.23010902 0.42380625 -0.46866834
00000000: e2e2 c0be ccc7 03bf 91ee 2a3e 0de2 ef3e
00000010: 9512 c33e 7919 073d d12e c3be b648 83be
00000020: 96fd 81be e170 80be 57df e8be e27d 433e
00000030: 7c3f f93e cfc3 443c ced9 44bf 503c f83b
00000040: a572 843d b64d 55bd 4110 45bf ed30 983e
00000050: 3527 5a3f ee81 0cbe 2f3f 88be 9de2 93bc
00000060: 18e8 153f 55fb 3dbf 934f 6ebf fd52 bb3e
00000070: e17d 953e 30a0 ef3e 9fb5 c53e cc76 5d3d
00000080: 3292 02bf 44a6 a9be ef3d 613d 4924 133f
00000090: a19f 18bf a42d 383f 9c4a 363f 0fbf 423e
000000a0: db87 e83e 1eed 853e 9257 1abe e117 ab3e
000000b0: 4957 70bf 6af0 783e 9e73 473e 0c97 f6be
000000c0: 8b13 02be 326e 5fbe f74d 85bd 5f0f ce3e
000000d0: b535 a5be f159 183f 503b 56bf 9434 4e3e
000000e0: fd7b 11bf 7680 3dbe 5f92 523e dce9 a2be
000000f0: 0ac7 063e b3a1 6b3e 22fd d83e 4cf5 efbe

layers.1.pool.1.conv.1.running_var f4 [64]
0.269936 0.26270887 0.5824655 0.3155248 0.675703 0.1050723 0.36407968 0.06393865
0.43414593 0.0829508 0.027285768 0.31084898 0.12126533 0.40123832 0.11275146 0.19765426
0.15372856 0.12082909 0.48239556 0.3078382 0.06410067 0.05434069 0.28988543 0.04930401
0.442362 0.12777993 0.26766667 0.30718607 0.16007124 0.45095563 0.2730634 0.076989606
0.071414135 0.08829803 0.103906274 0.18861382 0.5133061 0.09601361 0.6972646 0.13025232
0.20079787 0.21570551 0.47824576 0.24703361 0.3589417 0.17849277 0.15317057 0.32476038
0.09355528 0.88540125 0.19512208 0.47082555 1.3172708 0.25609198 0.5019369 0.4190113
0.14369492 0.63956213 0.18048544 0.3367903 0.13956212 0.22572125 0.16770592 0.477955
00000000: 0d35 8a3e c781 863e 761c 153f 778c a13e
00000010: dffa 2c3f 2530 d73d a768 ba3e 44f2 823d
00000020: 6048 de3e 1ce2 a93d 6786 df3c 9927 9f3e
00000030: f559 f83d 1c6f cd3e 3dea e63d e165 4a3e
00000040: 056b 1d3e 3e75 f73d 8dfc f63e f89c 9d3e
00000050: 3647 833d 5894 5e3d dd6b 943e 00f3 493d
00000060: 467d e23e bed8 023e 9b0b 893e 7e47 9d3e
00000070: b7e9 233e a8e3 e63e f7ce 8b3e baac 9d3d
00000080: 9341 923d 99d5 b43d d0cc d43d fb23 413e
00000090: 0768 033f c9a2 c43d ef7f 323f dd60 053e
000000a0: f59d 4d3e e8e1 5c3e a1dc f43e 61f6 7c3e
000000b0: 35c7 b73e cfc6 363e bfd8 1c3e fe46 a63e
000000c0: e999 bf3d a8a9 623f 15ce 473e 0c10 f13e
000000d0: 549c a83f 7d1e 833e f07e 003f a688 d63e
000000e0: c324 133e 58ba 233f 2dd1 383e c76f ac3e
000000f0: 5fe9 0e3e 7923 673e 1abb 2b3e 85b6 f43e

layers.1.pool.1.conv.3.weight f4 [64, 64, 3, 3]
-0.030435786 -0.0060389466 -0.017866688 -0.0131278755 -0.009832745 0.026216201 -0.0005364192 0.0032004307
-0.031231755 -0.0018104657 0.011237217 0.02124461 -0.035194963 0.023061361 -0.019979294 0.005337241
0.007062513 -0.025581215 -0.006889692 -0.029858839 0.0044015255 -0.030975137 0.02636309 -0.007730892
-0.04511414 0.035200566 -0.019426418 0.008288155 -0.0020464815 -0.0049675046 -0.019976234 0.019409249
-0.025071664 0.03323791 -0.004808601 0.035435013 -0.040825065 0.009445599 -0.021039773 0.03724502
0.017865503 -0.034462612 -0.03680271 0.018884836 0.015831005 -0.028073557 0.016739218 0.0074529783
0.0020087138 0.03203722 0.010991424 -0.0072486675 0.011041888 -0.0035419818 0.016197264 -0.03427619
-0.040171728 -0.008287532 -0.031350736 0.02727597 -0.02128586 0.010114552 -0.010572867 -0.024208501
-0.029031424 -0.02757126 -0.005679173 0.0106062265 -0.015871184 0.038047887 0.0011942497 0.026373086
-0.0061206897 -0.013547876 0.021833539 -0.02231407 -0.025067473 -0.021154774 -0.031357985 -0.01608016
0.005998567 -0.03464569 0.024619391 0.003685656 -0.035828583 0.017064765 0.025655294 -0.01332877
-0.03055394 -0.013229327 0.02575804 -0.0037089004 -0.02438474 0.03415414 0.028108979 -0.02130111
0.037687887 0.020932283 0.0012450073 0.014826109 -0.019181315 -0.02560563 -0.027783496 -0.032432947
-0.0378356 0.04003259 -0.026048848 -0.028733863 0.043701854 0.0034396634 -0.017316094 -0.0011626104
0.025183152 -0.014132219 -0.035756998 -0.03784442 0.044176634 -0.012600965 -0.046808366 -0.04344211
-0.023140337 0.027409643 0.0062742927 0.0010232696 0.023064809 -0.041755654 -0.0025237873 0.025452605
-0.004292987 0.019914888 0.04500818 -0.0021028677 0.016720524 0.00528907 -0.022429444 0.013052293
-0.037878532 0.041057695 0.02834284 -0.033235554 -0.034344036 -0.014493371 -0.026743773 -0.01070471
-0.021315722 -0.006807621 -0.02769205 -0.00050298945 -0.0037435477 -0.024597194 0.010970849 0.0017971626
-0.041576277 -0.0371037 -0.0336303 0.024646292 -0.005834942 -0.03763376 -0.03338119 -0.031084139
-0.009183535 0.020464003 -0.023159288 -0.030973647 -0.002358125 -0.00929874 0.03865234 -0.032816757
0.011753793 0.032703258 0.003095837 -0.0024042926 0.035542842 0.02551002 -0.0076420107 -0.030185334
-0.0039803404 -0.020737618 0.014689929 0.0063475203 -0.020770174 0.0009866214 0.0008052642 0.0020228126
-0.009259063 -0.02850242 0.024952121 0.022237603 0.041329376 0.032623813 -0.008771654 0.039830618
0.020767435 0.040355086 -0.006160893 -0.024302382 0.02894058 -0.025315393 0.02775701 -0.025102435
0.012196997 0.0074869646 0.034915682 -0.041041926 -0.03923129 0.03284891 -0.028653592 -0.0013354219
-0.017954906 0.018042596 -0.0039800797 0.016689138 0.006206257 0.016998798 -0.036929 -0.013624433
-0.018154252 -0.005547191 0.01560741 0.0011185254 0.025754144 -0.02877843 -0.0025012586 0.030637447
0.018574333 0.0060862508 -0.029499194 -0.015681649 -0.015068159 0.040860444 -0.0022389637 -0.022669181
0.0054976204 0.0373039 0.04277053 -0.03286749 0.005596977 -0.027183125 0.032703407 -0.0059614526
-0.025131587 0.006081794 0.0056715836 0.02874238 0.026781537 0.030650796 0.026884193 0.01013247
-0.044302944 -0.017884493 0.028206462 -0.033791944 -0.0017988548 -0.009815699 0.031726293 -0.015117139
00000000: 7854 f9bc 5be2 c5bb 295d 92bc 4d16 57bc
00000010: 8619 21bc 5cc3 d63c 7c9e 0cba 51be 513b
00000020: bdd9 ffbc 264d edba 4e1c 383c 2d09 ae3c
00000030: 9828 10bd 2eeb bc3c 9eab a3bc 06e4 ae3b
00000040: a76c e73b b28f d1bc edc2 e1bb 869a f4bc
00000050: ac3a 903b 92bf fdbc 68f7 d73c 6c53 fdbb
00000060: 9bc9 38bd 782e 103d 2724 9fbc 0bcb 073c
00000070: 431e 06bb 73c6 a2bb 33a5 a3bc 2500 9f3c
00000080: 1763 cdbc 7a24 083d 7891 9dbb 4e24 113d
00000090: 2f38 27bd b7c1 1a3c 9a5b acbc 3c8e 183d
000000a0: ad5a 923c ab28 0dbd 70be 16bd 5fb4 9a3c
000000b0: 06b0 813c 84fa e5bc af20 893c 1d38 f43b
000000c0: a0a4 033b 7639 033d 6015 343c 3b86 edbb
000000d0: 09e9 343c 9820 68bb 20b0 843c 3165 0cbd
000000e0: 1c8b 24bd 6ec8 07bc a169 00bd db71 df3c
000000f0: af5f aebc 82b7 253c d139 2dbc e850 c6bc
00000100: 4fd3 edbc 20dd e1bc 5b18 babb bdc5 2d3c
00000110: 4904 82bc 1ad8 1b3d 5f88 9c3a 5f0c d83c
00000120: 1190 c8bb e9f7 5dbc 40dc b23c ffcb b6bc
00000130: 4d5a cdbc c74c adbc 3b71 00bd 8aba 83bc
00000140: a18f c43b a4e8 0dbd 9bae c93c 0c8b 713b
00000150: fec0 12bd 68cb 8b3c 0d2b d23c ea60 5abc
00000160: 424c fabc d2bf 58bc 8602 d33c 0611 73bb
00000170: 82c2 c7bc 36e5 0b3d cd44 e63c aa7f aebc
00000180: 9d5e 1a3d 2e7a ab3c 832f a33a 35e9 723c
00000190: 2222 9dbc e6c2 d1bc 379a e3bc 69d8 04bd
000001a0: 81f9 1abd 37f9 233d 6564 d5bc 4763 ebbc
000001b0: b700 333d fa6b 613b 7bda 8dbc bb62 98ba
000001c0: e64c ce3c d38a 67bc ee75 12bd c002 1bbd
000001d0: 8ff2 343d 4774 4ebc 21ba 3fbd 5bf0 31bd
000001e0: ce90 bdbc 308a e03c 9598 cd3b 3b1f 863a
000001f0: 69f2 bc3c fa07 2bbd 2066 25bb fb81 d03c
00000200: 2fac 8cbb 8c24 a33c 7f5a 383d 44d0 09bb
00000210: 7bf9 883c ef4f ad3b f4bd b7bc 49d9 553c
00000220: 8526 1bbd 1d2c 283d 3e2f e83c 0122 08bd
00000230: 55ac 0cbd 9b75 6dbc c215 dbbc cf62 2fbc
00000240: 4f9e aebc 7712 dfbb 70da e2bc 0ddb 03ba
00000250: 4f56 75bb 0e80 c9bc 13bf 333c c58e eb3a
00000260: e34b 2abd 0dfa 17bd edbf 09bd 05e7 c93c
00000270: 0b33 bfbb dc25 1abd b7ba 08bd 2aa4 febc
00000280: 8a76 16bc 20a4 a73c 8cb8 bdbc 72bc fdbc
00000290: c68a 1abb be59 18bc eb51 1e3d dd6a 06bd
000002a0: fb92 403c daf3 053d 87e3 4a3b 5691 1dbb
000002b0: 5f95 113d 64fa d03c d569 fabb 3c47 f7bc
000002c0: 846d 82bb f0e1 a9bc 07ae 703c dcfe cf3b
000002d0: 3626 aabc 8551 813a 5e18 533a 2a91 043b
000002e0: 53b3 17bc e87d e9bc 6468 cc3c a22b b63c
000002f0: fe48 293d 8ca0 053d fcb6 0fbc 6e25 233d
00000300: 7820 aa3c 604b 253d 51e1 c9bb ca15 c7bc
00000310: cc14 ed3c 3a62 cfbc ab62 e33c 9fa3 cdbc
00000320: ead5 473c 3655 f53b bf03 0f3d 941b 28bd
00000330: fdb0 20bd 948c 063d f0ba eabc 5309 afba
00000340: 2b16 93bc 11ce 933c 546b 82bb a9b7 883c
00000350: db5d cb3b 1041 8b3c dd42 17bd 0439 5fbc
00000360: 3ab8 94bc 36c5 b5bb 39b6 7f3c 7c9b 923a
00000370: 5bfa d23c bec0 ebbc 28ec 23bb 62fb fa3c
00000380: 3329 983c 2c6f c73b 4ba8 f1bc cd76 80bc
00000390: 71e0 76bc 485d 273d 94bb 12bb b8b4 b9bc
000003a0: 6225 b43b f9cb 183d 2730 2f3d 10a0 06bd
000003b0: d966 b73b 25af debc 02f4 053d 4a58 c3bb
000003c0: c2e0 cdbc c949 c73b b1d8 b93b 2475 eb3c
000003d0: f464 db3c 6117 fb3c 3d3c dc3c a902 263c
000003e0: 0177 35bd 8082 92bc 3d11 e73c 6c69 0abd
000003f0: 8dc7 ebba 07d2 20bc 6ef3 013d e0ad 77bc

layers.1.pool.1.conv.3.bias f4 [64]
0.014105517 0.01438211 -0.0013568238 0.022300852 0.008169761 -0.038450822 -0.034546748 0.0065434184
-0.008890318 0.01913647 -0.03839824 0.031451363 -0.021017466 0.007598241 0.012884052 0.040837083
-0.016825859 0.02487778 -0.009650029 -0.0070179356 -0.009151911 -0.039320525 0.023698336 0.019070819
-0.039316207 -0.02645536 -0.00084462226 -0.020725036 0.034283176 0.018523518 0.021702448 0.0148743875
-0.0063702185 0.028343506 -0.00970712 0.022822287 0.013394683 0.028071942 -0.011952974 0.0014146059
0.014911558 -0.017445559 -0.024788516 0.008604729 -0.0070673544 0.031677235 0.033758327 0.026774114
0.0077794157 -0.013676129 0.033398554 -0.002510736 -0.003567482 -0.009824349 -0.040895123 0.022700852
0.0045130583 -0.040826757 -0.00080077874 -0.00015943297 -0.015452752 -0.034016363 0.04091039 0.013029565
00000000: d41a 673c f1a2 6b3c 74d7 b1ba 47b0 b63c
00000010: 76da 053c 9c7e 1dbd e480 0dbd 2c6a d63b
00000020: b2a8 11bc 16c4 9c3c 7947 1dbd 25d3 003d
00000030: d22c acbc aafa f83b a117 533c c944 273d
00000040: 62d6 89bc 7ccc cb3c 281b 1ebc b6f6 e5bb
00000050: e6f1 15bc 8f0e 21bd 0323 c23c 683a 9c3c
00000060: 080a 21bd e9b8 d8bc a469 5dba 8dc7 a9bc
00000070: 846c 0c3d a2be 973c 55c9 b13c b4b3 733c
00000080: 44bd d0bb a430 e83c 9d0a 1fbc cef5 ba3c
00000090: 5f75 5b3c 21f7 e53c 68d6 43bc 4c6a b93a
000000a0: 9b4f 743c fde9 8ebc 4911 cbbc d9fa 0c3c
000000b0: 4495 e7bb fdbf 013d 2c46 0a3d 6355 db3c
000000c0: 78ea fe3b d811 60bc eccc 083d 298b 24bb
000000d0: 6bcc 69bb 4ef6 20bc a581 27bd 23f7 b93c
000000e0: 47e2 933b f539 27bd 5aeb 51ba 762d 27b9
000000f0: 8a2d 7dbc be54 0bbd a791 273d f579 553c

layers.1.pool.1.conv.4.weight f4 [64]
0.99783564 1.010143 1.018593 1.0103719 1.0280337 1.0315757 1.028279 0.99241257
1.0146976 1.0164684 1.0099727 1.0137925 1.0144287 1.0171878 0.9959098 1.030777
0.99913955 1.0020022 1.0428057 0.990794 0.9956956 1.0232949 1.0082726 1.0247049
1.0040218 1.0138496 1.0227369 1.0252413 0.9975123 1.0128335 1.0057328 0.995303
1.0198424 0.9922797 1.0237044 1.0315413 1.0093956 1.0127509 1.012095 0.99604774
0.98263735 1.0053842 1.0326014 1.0093976 0.97867775 1.0023667 0.9943067 0.9967796
0.99509025 1.0196477 1.0128286 1.0443897 1.0278496 0.99984795 1.008734 1.0130756
1.0128108 1.0151722 1.0042517 1.0219961 0.9824819 0.99979895 1.0157554 0.98946726
00000000: 2872 7f3f 5e4c 813f 4161 823f de53 813f
00000010: 9c96 833f ac0a 843f a59e 833f c00e 7e3f
00000020: 9ce1 813f a31b 823f c946 813f f4c3 813f
00000030: cdd8 813f 3633 823f f2f3 7e3f 80f0 833f
00000040: 9cc7 7f3f 9c41 803f a87a 853f ada4 7d3f
00000050: e8e5 7e3f 54fb 823f 140f 813f 8829 833f
00000060: c983 803f d3c5 813f 0be9 823f 1b3b 833f
00000070: f75c 7f3f 87a4 813f dabb 803f 2dcc 7e3f
00000080: 328a 823f 0b06 7e3f bf08 833f 8c09 843f
00000090: e033 813f d2a1 813f 548c 813f fcfc 7e3f
000000a0: 1f8e 7b3f 6eb0 803f 482c 843f f133 813f
000000b0: a08a 7a3f 8d4d 803f e28a 7e3f f32c 7f3f
000000c0: 3cbe 7e3f d183 823f 5ea4 813f 90ae 853f
000000d0: 9390 833f 09f6 7f3f 321e 813f 76ac 813f
000000e0: c9a3 813f 2af1 813f 528b 803f c5d0 823f
000000f0: ef83 7b3f d3f2 7f3f 4604 823f ba4d 7d3f

layers.1.pool.1.conv.4.bias f4 [64]
-0.0014515216 -0.05751997 -0.05339858 -0.060970392 0.020372989 -0.014344033 -0.0032192953 -0.03248825
-0.049588617 -0.052846223 -0.002609974 -0.040371653 -0.05216348 0.0062953527 -0.01631741 -0.055204995
-0.025537342 -0.014602259 -0.016145948 -0.04190703 -0.032479655 -0.053332098 0.011403978 0.014527926
0.0044993283 -0.05542416 -0.008597427 -0.06342707 -0.045769986 -0.03899444 0.00073525944 0.0025718457
-0.041216183 -0.025101604 -0.040229864 -0.004750624 0.0030233208 -0.054523006 0.009588019 0.0036529545
-0.0020640006 -0.03219066 -0.0032254104 -0.0017288524 -0.01852066 -0.04186642 -0.013640841 -0.05259695
-0.0063361875 -0.06287275 -0.047616474 -0.029529538 -0.06489958 -0.002071851 0.014036727 -0.06131609
-0.041516542 -0.060182344 -0.004621253 -0.053921748 -0.018016173 0.004971422 -0.04803281 -0.011669504
00000000: fc40 beba 0f9a 6bbd 78b8 5abd 17bc 79bd
00000010: 41e5 a63c 3c03 6bbc d0fa 52bb 6612 05bd
00000020: 6f1d 4bbd 4875 58bd 190c 2bbb bf5c 25bd
00000030: 60a9 55bd 3f49 ce3b 17ac 85bc a21e 62bd
00000040: b033 d1bc 503e 6fbc 8244 84bc b5a6 2bbd
00000050: 6309 05bd c272 5abd c0d7 3a3c 8a06 6e3c
00000060: 1a6f 933b 7204 63bd 39dc 0cbc 0de6 81bd
00000070: 4f79 3bbd a2b8 1fbd 6dbe 403a 698c 283b
00000080: 4dd2 28bd e1a1 cdbc 12c8 24bd 1fab 9bbb
00000090: e822 463b 8453 5fbd 1117 1d3c 6866 6f3b
000000a0: 2f44 07bb 5ada 03bd 6861 53bb a99a e2ba
000000b0: a4b8 97bc 207c 2bbd d57d 5fbc e66f 57bd
000000c0: cb9f cfbb 6ec3 80bd 7e09 43bd eee7 f1bc
000000d0: 12ea 84bd e4c7 07bb 4dfa 653c 9526 7bbd
000000e0: 400d 2abd c381 76bd e16d 97bb 0ddd 5cbd
000000f0: a796 93bc 4fe7 a23b 0dbe 44bd 7331 3fbc

layers.1.pool.1.conv.4.running_mean f4 [64]
-0.20036985 0.7600043 0.40296167 0.7748205 -0.17528808 -0.8338227 -1.1616454 0.47995067
0.66197354 0.6731584 -1.041823 0.6256688 0.4095758 0.11315098 0.31023565 0.5020584
0.4874261 0.94069046 -1.3139365 0.48167247 -0.4895475 0.8659548 0.21848437 -0.0724673
-0.53695804 0.65280306 -1.1200616 0.63832843 1.153124 0.9491364 0.10947914 -0.38962424
1.3625327 0.47813356 0.44090268 -0.92687434 -0.3332907 0.5780043 0.42311615 0.48494577
0.48777926 0.7112213 -1.20111 -0.5226749 0.39739153 0.58521086 -0.19802451 0.87298614
0.14842384 0.8714159 0.6743396 -1.3730983 0.5997299 -1.2478796 0.053029872 1.0053207
0.46414798 0.897087 -0.37627456 0.7709828 -0.5462908 -0.957719 1.2769274 1.0187687
00000000: c12d 4dbe a48f 423f fe50 ce3e a35a 463f
00000010: b87e 33be 6875 55bf ccb0 94bf 18bc f53e
00000020: 1977 293f 1c54 2c3f 755a 85bf d52b 203f
00000030: ebb3 d13e b3bb e73d 35d7 9e3e e686 003f
00000040: ea8f f93e 17d1 703f 122f a8bf c69d f63e
00000050: f8a5 fabe 37af 5d3f 5eba 5f3e bc69 94bd
00000060: 1576 09bf 1a1e 273f 2e5e 8fbf 7e69 233f
00000070: 9199 933f 9afa 723f 9936 e03d d47c c7be
00000080: 7967 ae3f eccd f43e ffbd e13e a347 6dbf
00000090: 14a5 aabe 17f8 133f aea2 d83e d04a f83e
000000a0: 34be f93e 9912 363f f9bd 99bf 06ce 05bf
000000b0: e776 cb3e 61d0 153f f0c6 4abe 057c 5f3f
000000c0: 6bfc 173e 1d15 5f3f 85a1 2c3f afc1 afbf
000000d0: e687 193f 85ba 9fbf da35 593d 59ae 803f
000000e0: cea4 ed3e 7ea7 653f 0fa7 c0be 215f 453f
000000f0: b7d9 0bbf 132d 75bf 5b72 a33f 0367 823f

layers.1.pool.1.conv.4.running_var f4 [64]
0.4402572 0.13063924 0.12188274 0.12469106 0.5796927 0.13217834 0.49896708 0.083054766
0.12859796 0.12840354 0.2251906 0.114912376 0.08640826 0.10119599 0.3292942 0.09117986
0.1566968 0.28665954 0.45968848 0.097716466 0.07155438 0.17560539 0.34196335 0.28368792
0.4009142 0.10586755 0.39613017 0.14980946 0.16740198 0.12770675 1.0536466 0.2927225
0.37003568 0.14334989 0.07725206 0.42317837 0.44346252 0.11661675 0.24913846 0.1541315
0.14778078 0.12219535 0.13134167 0.22144575 0.11397823 0.101563744 0.12707075 0.10590162
0.21339308 0.13825858 0.13409813 0.1443118 0.13672093 0.156607 0.29562977 0.17720851
0.09152169 0.12590785 0.23349497 0.10969946 0.35262972 0.47543123 0.23913127 0.27635202
00000000: 6469 e13e 4bc6 053e a89d f93d 075e ff3d
00000010: be66 143f c259 073e 9d78 ff3e 9e18 aa3d
00000020: 2faf 033e 387c 033e 5d98 663e 2e57 eb3d
00000030: d0f6 b03d d83f cf3d 4099 a83e 82bc ba3d
00000040: 2075 203e 0ac5 923e 4a5c eb3e 921f c83d
00000050: 1a8b 923d e6d1 333e d215 af3e 8b3f 913e
00000060: a044 cd3e 16d1 d83d 93d1 ca3e a767 193e
00000070: 6d6b 2b3e 8fc5 023e e4dd 863f b9df 953e
00000080: 5175 bd3e 50ca 123e 5436 9e3d d6aa d83e
00000090: 850d e33e c3d4 ee3d 271e 7f3e a6d4 1d3e
000000a0: d853 173e 8e41 fa3d 6e7e 063e adc2 623e
000000b0: 6b6d e93d a700 d03d d61e 023e f3e2 d83d
000000c0: b783 5a3e a893 0d3e 0551 093e 79c6 133e
000000d0: 9200 0c3e 965d 203e c95c 973e 2676 353e
000000e0: b96f bb3d fded 003e 4e19 6f3e 1caa e03d
000000f0: e28b b43e b96b f33e d4de 743e 037e 8d3e
