src/models/saves/UNet_debugging_1.pth (torch_old, 418826 bytes, 40 tensors)

layers.0.conv.0.weight f4 [32, 3, 3, 3]
000000 ab 82 da bd e5 4a e1 bd 14 49 89 bd 7a b7 23 3c
       -0.10669454 -0.11000613 -0.06703392 0.009992475
000010 5b 6c 14 3e a7 6a 20 be ce 51 0d 3e 4f d6 17 3e
       0.1449446 -0.15665685 0.13800737 0.14827846
000020 5a 26 38 bb 59 1c 8f 3d ec cc 3d bd 3c 31 5b 3d
       -0.0028099031 0.06987829 -0.046338007 0.05351375
000030 8c e3 6f 3c 1a c1 6b bd 61 86 f7 bd 0d 63 ac bd
       0.014641654 -0.057557203 -0.120861776 -0.0841733
000040 c3 cc 64 3d 3c 96 c0 bb 7c 5d 76 bd b0 7a c5 bd
       0.05585934 -0.0058772843 -0.060147747 -0.096425414
000050 1d 5a 4a be 64 98 43 3d dd 5a a5 bd b8 c3 95 3d
       -0.19760938 0.047752753 -0.080739714 0.07312721
000060 ec 1e 35 bc 40 ff 9b bd e6 7a 27 bd 52 61 12 3e
       -0.011054736 -0.076170444 -0.04088869 0.14294937
000070 08 21 b7 3c 92 ac 17 3e 58 fd 18 be e2 8a 3a be
       0.022354618 0.14811924 -0.14940393 -0.18217042
000080 ab 91 68 3d 70 e4 43 3d 96 a3 33 3e ac f3 d5 bd
       0.056779545 0.047825277 0.17542872 -0.10446867
000090 79 ca 27 be 59 d3 2f 3d 15 78 ed bc de 2d 08 bc
       -0.16385831 0.042926166 -0.028987924 -0.008311717
0000a0 86 fa f5 3d e4 f1 0f 3e c1 0f 3c 3e 28 b8 9e bd
       0.12010674 0.14057118 0.18365385 -0.07749969
0000b0 53 8f 27 3e a9 d8 2f bc 9d 54 17 bc 90 89 9c 3d
       0.16363268 -0.010732808 -0.009236482 0.076434255
0000c0 16 64 27 3e 9c f5 a5 bc 46 47 63 3d f4 6b 17 3e
       0.16346774 -0.020258717 0.055487894 0.14787275
0000d0 46 b8 a5 bd 37 1b 46 bd 59 71 b4 3d 7b 02 11 3e
       -0.08091788 -0.048365798 0.08810682 0.14161102
0000e0 4c 55 12 3d 36 07 8e 3d c4 fa df bd 09 fd 05 3e
       0.035725877 0.06934969 -0.109365016 0.13084807
0000f0 70 4a 35 be ac 6a 90 3d c5 95 c5 3d 89 5f d7 bd
       -0.17704177 0.07051596 0.09647707 -0.10516269
000100 2f b6 27 3e 55 5c 3e 3e 6c c7 ba 3d 7d 28 5d bd
       0.16378091 0.1858991 0.09120068 -0.05399369
000110 33 ef d3 3c c8 e8 87 3b f6 9f 11 bd 99 fd 32 3e
       0.025870895 0.0041476227 -0.03555294 0.17479552
000120 2e 3e 2c be 2b f1 0a be 07 80 5e ba 47 a6 e7 3c
       -0.16820595 -0.13568561 -0.00084877055 0.02827753
000130 60 8f 0a 3e 7d 35 15 be a0 9f 1b 3e 09 39 3f bd
       0.13531256 -0.14571185 0.15197611 -0.046685252
000140 91 20 11 bd 6d 69 b1 3d 42 5e b0 3d db 3d 85 3d
       -0.03543145 0.086626865 0.08611728 0.065059386
000150 66 4f 0b 3e dd 5e 27 3e a1 1d 8a bc 11 4e 16 3e
       0.13604507 0.16344781 -0.016859831 0.14678217
000160 82 6c a4 3d 0c 52 24 3e 9d 7e 8e 3c 5f 0d 17 3e
       0.08028509 0.16046923 0.017394358 0.14751194
000170 18 35 2a 3e 97 cd 07 be 23 49 2f 3e 53 bd 8c bc
       0.16621816 -0.1326202 0.17117743 -0.01718012
000180 c9 5b ad 3d bd 06 73 3d d8 55 06 be e1 6c f7 bd
       0.08464772 0.059332598 -0.13118684 -0.12081314
000190 22 8c bd bd 2b 05 47 ba 93 c0 4d 3e 85 d5 1f 3d
       -0.09255244 -0.00075920176 0.20092992 0.039021987
0001a0 6b 4d 1e 3e d3 1a 30 bd 2c 75 a7 3d 4e dc c5 3c
       0.1545922 -0.04299433 0.08176646 0.024152901
0001b0 38 99 7e 3c 74 5b 04 3e c8 60 eb 3d 1a 70 f7 bd
       0.01553946 0.12925512 0.11493069 -0.120819286
0001c0 39 36 dd bd 08 8f 6e bd eb 38 23 be 36 26 0d 3e
       -0.10801358 -0.058241874 -0.15939681 0.13784108
0001d0 8b 07 a6 3d ba e4 f3 3d a2 6c c4 bd ab 39 26 bd
       0.081069075 0.119088605 -0.095910326 -0.04058234
0001e0 7d 23 1f 3d 19 af c8 3d f3 a2 1b be ce f1 21 be
       0.038852204 0.09799022 -0.15198879 -0.15814897
0001f0 c9 47 52 bd 07 91 c6 bd 89 90 fc bd 59 f3 0f bd
       -0.05133799 -0.096956305 -0.123322554 -0.035144184
000200 4a 61 58 bc 68 8e d2 bd f3 f2 eb 3d ba a1 e2 bc
       -0.013206789 -0.10281068 0.11520948 -0.027665008
000210 56 33 58 bd db 84 bc bd a5 ae 3e be ab 8f 3b be
       -0.052783333 -0.09205028 -0.18621309 -0.18316524
000220 0f 86 cf bd 46 2c 11 3e e1 89 08 be 37 1f dc bd
       -0.101329915 0.14177045 -0.13333847 -0.10748141
000230 8a ed a2 bc eb 84 0d be 01 f8 41 3e 79 04 ed 3d
       -0.019888658 -0.13820235 0.18942262 0.11573119
000240 f7 87 f7 bd 21 4a 57 3d a1 2e ec 3c 87 85 97 3d
       -0.1208648 0.05256093 0.028830828 0.07398515
000250 cd 24 33 be 64 d8 23 be cf 5c 0a 3c 75 52 29 be
       -0.17494507 -0.16000515 0.008444979 -0.16535361
000260 45 ab 26 bd 5c 24 96 3d 94 b1 46 be ce 01 3f bd
       -0.04069068 0.07331154 -0.19403678 -0.04663258
000270 2a 51 d6 bd 8a 9c a2 3b d6 f4 16 be 60 10 0a be
       -0.104646996 0.0049625086 -0.14741835 -0.13482809
000280 26 2c 18 be 68 ef 15 be a1 f4 ea 3d 10 88 56 bd
       -0.14860591 -0.14642107 0.114724405 -0.052375853
000290 9d 86 da bd 6f f6 26 3d be 8e 25 be ed 2b a3 bc
       -0.10670207 0.04076236 -0.16167733 -0.019918406
0002a0 66 d6 18 be 5c 4d e1 bd d6 a0 54 3e 0d b5 2b 3e
       -0.14925537 -0.11001083 0.20764479 0.16768284
0002b0 91 8a 72 bd 66 2b 30 3e 51 08 35 3e ca e1 07 3e
       -0.05921418 0.17204055 0.17678954 0.13269725
0002c0 6c 84 48 3e 68 7e 20 3e 12 40 4a 3e 73 c8 00 be
       0.19581765 0.1567322 0.19751003 -0.12576465
0002d0 ef 4f 60 bd 19 4c 22 be 32 bd 9e bd 6c 4e 2b 3e
       -0.05476373 -0.15849341 -0.0775093 0.16729134
0002e0 49 06 2c be 38 be ed 3d cc 97 21 be 1b 92 d8 3c
       -0.16799273 0.11608547 -0.15780562 0.026436856
0002f0 d5 69 b0 3a 6c a4 c2 3d de 61 d2 3d ac 48 43 be
       0.0013459275 0.09504017 0.10272573 -0.19070691
000300 43 e1 60 bd 7e 4d 07 3e f4 d7 ed 3c 56 01 4d 3c
       -0.054902326 0.13213155 0.029033639 0.012512526
000310 5f 71 2c 3e 8e 5e 39 3e e0 5c 13 be 12 ad 02 3e
       0.16840123 0.18102476 -0.14390898 0.12761334
000320 b8 48 5b bd 1f 49 04 3e 72 3a c0 bd 38 61 cc bd
       -0.053536147 0.12918518 -0.093861476 -0.099794805
000330 33 81 8e 3d 2b f7 f2 bd 28 bb 94 bd 29 2a 9d bd
       0.069582365 -0.1186355 -0.0726226 -0.07674057
000340 dc 2e 30 be fc 2a ba 3c 2b 1c 92 bd 5c 2e c7 bb
       -0.17205375 0.022725575 -0.07134279 -0.0060785245
000350 34 93 09 be 65 81 34 be 89 8c 41 be f8 49 b3 3d
       -0.1343506 -0.17627485 -0.18901266 0.08754343
000360 14 94 08 be 16 21 5c 3d bd eb 07 3d df a5 1c 3e
       -0.13337737 0.05374249 0.033183802 0.1529765
000370 66 d5 86 bd b6 4e 36 bc 32 fb 9b bd 30 c3 9e bd
       -0.06583671 -0.011127165 -0.07616271 -0.07752073
000380 4a e2 09 be 55 80 29 be d9 95 39 bd ef 90 b1 bc
       -0.13465229 -0.16552861 -0.04530892 -0.021675555
000390 52 8c d5 bd b8 1a 0d 3e 2a 8b d7 3d b1 71 96 3d
       -0.104271546 0.13779724 0.1052459 0.07345904
0003a0 63 66 c5 bd 4b 23 13 be 53 8d 28 3c 54 a9 3b bd
       -0.09638669 -0.14368932 0.010287601 -0.04581578
0003b0 0c 9e 14 bc ab 65 b6 bd b1 05 7b bc 53 8d 35 3e
       -0.009070884 -0.089061104 -0.015321181 0.17729692
0003c0 20 05 30 be e0 43 a7 3d fd 9b 2f 3d 10 37 af 3d
       -0.17189455 0.08167243 0.04287337 0.08555424
0003d0 6d 98 e8 bd 3f ae 8a 3d b3 0a fc bd ca 3f a2 3d
       -0.11357198 0.06771516 -0.12306728 0.07922323
0003e0 98 dd 1f 3e c6 ba 5b 3d 6a 33 18 3d 83 10 1e bd
       0.15611875 0.053644918 0.037158407 -0.038589966
0003f0 e9 f6 01 be 44 dd aa bd 59 e7 00 bc 7f 12 a4 3d
       -0.12691845 -0.08342984 -0.007867658 0.0801134

layers.0.conv.0.bias f4 [32]
000000 75 08 97 bd 07 c0 04 3e f8 7d bf bc 89 d9 1f 3e
       -0.0737466 0.12963878 -0.023375496 0.15610327
000010 d0 d6 1e 3d b6 ed 6c 38 41 12 37 3e ff f3 df bd
       0.03877908 5.648817e-05 0.17878057 -0.109352104
000020 f4 c6 2e 3e 3c d5 17 be 7b ad a7 3d 99 f7 02 3e
       0.17068082 -0.14827436 0.08187386 0.12789764
000030 93 52 6b bd f7 65 0d bd 54 84 29 bd 08 f8 8d 3c
       -0.057451796 -0.03452107 -0.041385964 0.017330185
000040 ec 9f 27 3e 1b ea 8c 3d c1 d2 c3 bc 97 64 15 be
       0.16369599 0.068805896 -0.023904206 -0.14589153
000050 48 e1 2f 3e d2 1c f5 3d df a1 16 3e 54 90 4f bd
       0.17175782 0.11968388 0.14710186 -0.05067475
000060 50 1a 60 3c 22 04 1c 3e 57 9e a9 bd fb 42 c4 3c
       0.013678148 0.15235952 -0.08282154 0.02395772
000070 7a d0 c7 3c 1c f2 0a 3d 76 bf 26 be 73 c8 38 be
       0.024391402 0.0339223 -0.16283974 -0.18045215

layers.0.conv.1.weight f4 [32]
000000 1a 1a 7e 3f 16 32 81 3f 7d 75 7d 3f 50 20 81 3f
       0.9925858 1.009341 0.990074 1.0087986
000010 9b e0 80 3f 20 0c 80 3f 5e 4e 7b 3f 08 0a 80 3f
       1.0068544 1.00037 0.98166454 1.0003061
000020 f0 5c 80 3f 24 65 80 3f 09 d1 80 3f 36 2f 80 3f
       1.0028362 1.0030866 1.0063792 1.0014408
000030 44 3e 7b 3f 83 87 7b 3f c6 79 7f 3f 40 86 80 3f
       0.98141885 0.9825365 0.99795187 1.004097
000040 3c d8 7f 3f d2 db 81 3f e9 53 7f 3f ce c5 7e 3f
       0.9993932 1.0145209 0.9973741 0.99520576
000050 7f 43 80 3f 88 89 80 3f 66 9f 80 3f 31 53 7f 3f
       1.0020598 1.0041971 1.0048645 0.99736315
000060 bf 16 7c 3f c2 fa 80 3f 3a 5d 80 3f 9f 7a 7a 3f
       0.9847221 1.0076525 1.002845 0.97843355
000070 57 50 7f 3f e5 bf 7e 3f bc 91 81 3f c2 fb 80 3f
       0.99731964 0.9951156 1.01226 1.007683

layers.0.conv.1.bias f4 [32]
000000 2b f9 a0 bc 59 01 87 3c 38 53 5d 3b 7e 8c 58 3c
       -0.019650063 0.016480135 0.0033771526 0.01321709
000010 ac bb 97 bc 2a d1 5a bc 9d 2b 73 bb 1f 62 72 bc
       -0.018522106 -0.013355533 -0.0037104853 -0.014793902
000020 5d 2c 92 bc c1 4b 45 3c 8d ba 94 bb 95 ec 91 bc
       -0.01784342 0.012041987 -0.00453884 -0.017813006
000030 4d ba 20 bc db 19 a2 bc 89 26 52 bb bd 7c 53 3c
       -0.009810043 -0.01978772 -0.0032066426 0.012908158
000040 f1 c9 70 bc 15 09 a9 3c ff d2 0c bc a2 68 45 bc
       -0.014696584 0.020634213 -0.008595227 -0.012048872
000050 aa 17 9e bc 23 7f 38 bc 7c 2b a0 bc 9d 44 11 3c
       -0.019298393 -0.0112607805 -0.019551985 0.008866456
000060 5d e8 9e bb a9 2c 85 3c 16 c9 67 3c ef 5e 67 bc
       -0.004849477 0.016256647 0.014147064 -0.014121755
000070 aa 34 d6 3b 7a 0e be 3b 38 ab 26 3c 02 91 8f bc
       0.0065370398 0.0058000656 0.010172658 -0.0175252

layers.0.conv.1.running_mean f4 [32]
000000 79 fa de be 1c 6a 25 3f 47 d3 b4 3e cd 88 91 3f
       -0.4355047 0.64615035 0.35317442 1.1369873
000010 38 61 fa be 25 cd 81 bf ca 21 f7 3e 7c df d8 be
       -0.48902297 -1.014073 0.48267967 -0.42358005
000020 7c 52 34 be 8c 25 9d 3e a1 59 fa be 7a 14 ab be
       -0.1760959 0.30692708 -0.48896506 -0.3341406
000030 3c 49 4a be 9f b9 2e bd 3c 5d 69 bf 18 9a 0e 3f
       -0.19754499 -0.04265749 -0.9115789 0.5570388
000040 18 09 20 be 5c e8 92 3f b5 5f 07 bf 79 77 3a bf
       -0.15628469 1.147716 -0.5288041 -0.7283855
000050 81 56 1b bf 73 5f fd be fd d6 30 bf f4 10 00 3f
       -0.6067887 -0.49486884 -0.69078046 0.5002587
000060 28 84 36 be a7 49 20 3f db db 93 3e 3e be 25 be
       -0.17823851 0.62612385 0.28878674 -0.16185853
000070 27 98 c5 3e 19 5a 31 3f 4d a6 84 3e f5 1d 5f bf
       0.38592646 0.69278103 0.25908127 -0.87155086

layers.0.conv.1.running_var f4 [32]
000000 8c 17 06 3d 12 2f 7a 3d bf 9a 0b 3d 80 2c 5c 3e
       0.0327373 0.061080046 0.034083124 0.2150135
000010 f4 42 88 3d eb 01 70 3e 91 f5 fb 3c 9b 61 fa 3c
       0.06653395 0.23438232 0.030756744 0.03056412
000020 64 1a eb 3c 95 41 47 3d 71 ba 99 3d e1 12 54 3d
       0.028699107 0.04864653 0.07506264 0.051775817
000030 b4 73 ef 3b 15 60 84 3b 20 94 32 3e 2b d7 8b 3d
       0.007307494 0.004039774 0.17439318 0.068281494
000040 ab 84 e9 3c 40 d4 86 3e c7 6a 78 3d 4d 77 a9 3d
       0.028505644 0.2633381 0.060648706 0.08274708
000050 44 da 0c 3e 48 e9 b5 3d aa 7d 27 3e 45 74 90 3d
       0.13755137 0.088823855 0.16356531 0.07053427
000060 3d b0 4b 3c 11 6b 66 3d d7 49 07 3d 46 36 40 3c
       0.012432155 0.05625445 0.033029404 0.01173169
000070 59 d9 04 3d 19 4f da 3d b8 5b 30 3d 49 26 db 3d
       0.03243384 0.10659618 0.04305622 0.10700662

layers.0.conv.3.weight f4 [32, 32, 3, 3]
000000 1b 18 88 3b 9a 94 8c bc 16 d3 da 38 fb 99 6e 3c
       0.004153264 -0.017160702 0.00010434368 0.014563079
000010 44 ec 33 bd 9f 41 92 bc ee 85 30 3d eb 1e 07 3d
       -0.043926492 -0.017853556 0.043096475 0.03298847
000020 50 2d 1c bd 33 9a 9f bc 50 2b 49 bc 2c 90 11 bb
       -0.03812915 -0.019482708 -0.012278393 -0.0022211177
000030 a6 b0 52 bd 81 03 49 bd 9e db 3c 3d 95 49 47 bc
       -0.051437996 -0.049075607 0.04610788 -0.012163539
000040 0c 1e 64 bc f6 87 9d bd 64 b5 1d 3d 56 86 8f 3c
       -0.013923179 -0.07691948 0.038503066 0.017520111
000050 01 bc 57 bd 43 ce de 3c c9 5d 2a bd c9 9d ca 3c
       -0.05266953 0.027197963 -0.041593347 0.024733441
000060 23 26 06 bd af 30 6e bd f6 c6 4b bd c7 7e 8c bd
       -0.032751214 -0.058151897 -0.04975029 -0.06860118
000070 80 91 47 3d 64 d4 04 3d 0b 28 3d 3d 6d 20 0c 3d
       0.048722744 0.032429114 0.046180766 0.03421061
000080 68 39 46 bd e4 45 17 bd ba b3 73 bc 3e 5b 13 3d
       -0.04839459 -0.036931887 -0.014874393 0.035975687
000090 f7 b7 49 3d ba 32 37 3d 1d 2e 33 bd 48 b3 c0 bb
       0.04924771 0.04472611 -0.04374515 -0.005880747
0000a0 dc d4 66 bd 76 61 f7 3c a3 aa 0c bc 21 5a 5a 3d
       -0.056355342 0.03019784 -0.008585605 0.05330861
0000b0 55 42 52 3d ae 18 ed 3c b6 9a 6d 3d 36 36 fc 3c
       0.05133279 0.028942432 0.058008872 0.030787569
0000c0 a9 a2 b8 3c 27 b8 54 3d 8f ae be 3c d5 7c 02 3d
       0.0225385 0.051933434 0.023276595 0.03185733
0000d0 8f d8 2f 3d 23 7f 70 3d c0 ff 3e bd fc cb 8c bc
       0.042931136 0.058714997 -0.04663062 -0.017187111
0000e0 d0 dc dc 3c 5b 98 49 bd 03 5d 54 3d c1 57 ca bc
       0.02696076 -0.049217563 0.051846515 -0.024700047
0000f0 cc ce 3f 3d 6a 61 a5 bc 00 e1 9a bc 60 cb 39 bd
       0.046828076 -0.020188052 -0.018906116 -0.04535997
000100 9c 0b 91 bb f5 35 e8 3b db b0 19 bd d2 e5 84 3c
       -0.004426433 0.0070865103 -0.03752218 0.016222868
000110 3a 5f 84 bc 47 dc ad bc 68 16 56 3d 04 ca d9 bc
       -0.016158689 -0.0212232 0.052267462 -0.026585586
000120 67 f2 39 3d 77 14 b5 3c 5d de 76 3b d8 ff a4 bb
       0.04539719 0.022104485 0.003766916 -0.0050353818
000130 9e f3 57 3d 7e d8 5c bd 3c ad 23 bd 61 93 2b bd
       0.052722566 -0.0539174 -0.03996013 -0.0418886
000140 93 a0 25 bd 0b 02 6c bb c1 d3 87 bc 89 89 78 bc
       -0.04043634 -0.003601196 -0.016580464 -0.01516951
000150 da 89 89 3c 0d ed 52 bd 65 6e 56 3c 22 b6 de 3c
       0.016789366 -0.0514956 0.013087844 0.027186457
000160 56 73 52 bd 68 7c fd ba d1 bb c2 3c 54 2a 6c 3d
       -0.051379524 -0.0019339444 0.023771198 0.057657555
000170 09 9f bb bb 82 b8 d7 bb 9c 76 e1 3c b8 21 54 3d
       -0.0057257456 -0.0065832743 0.027522378 0.05178997
000180 29 ee 6a 3d 7a 3e 4e 3d 89 34 37 bd c4 43 1e bd
       0.057356033 0.05035255 -0.044727836 -0.038638845
000190 48 26 87 ba 27 bc f3 bc a9 e1 f4 bc f7 57 c2 bc
       -0.0010311091 -0.029752804 -0.02989276 -0.023723586
0001a0 af d5 86 3c 08 73 d9 3c 45 9b 59 bd 89 e3 13 bd
       0.016459314 0.026544109 -0.053126592 -0.036105666
0001b0 d4 3c d6 bb e8 a9 52 bd c0 81 03 bb 6e df 3c 3d
       -0.006538013 -0.051431566 -0.002006635 0.046111517
0001c0 f8 7b f1 3c d7 ba 3f 3d a3 92 63 3b 53 de 5d 39
       0.029478058 0.046809044 0.0034724853 0.00021159025
0001d0 d5 80 f7 bc 09 82 32 3d 70 08 28 bd 1c e3 61 bc
       -0.0302128 0.043581042 -0.04102367 -0.013787057
0001e0 06 f7 c0 bb 0d 33 1c 3b 41 b8 10 bd 18 01 0e bd
       -0.0058888225 0.002383414 -0.03533197 -0.03466901
0001f0 06 90 b5 3c ca 60 2c 3d ba c1 6b 3c 59 e0 b1 bc
       0.022163402 0.042084493 0.01438945 -0.021713423
000200 6a 30 06 3d 4a 17 aa bb 89 53 6b 3d 65 cc 1f 3d
       0.032761015 -0.0051907646 0.057452712 0.039013285
000210 e1 c5 c7 3c 93 7b 7a bc 11 aa b2 3c 9d 8b fe 3a
       0.024386348 -0.015288251 0.02180961 0.001942027
000220 97 fe 6b bd 78 cc b9 3b 20 de 54 3d 43 c8 9e 3c
       -0.057615843 0.0056701265 0.051969647 0.019382602
000230 f1 fc 1a bd 2d 64 e7 bc 41 fe 80 bd 6d 98 d8 3c
       -0.03783888 -0.02824601 -0.06298495 0.02643987
000240 57 a1 c5 bc 00 77 c8 bc 54 91 49 bd aa 89 c5 bc
       -0.024124784 -0.024470806 -0.04921086 -0.024113495
000250 8f 1b 43 bd a0 b4 13 bd 80 a8 17 3d 95 8a 76 3a
       -0.047633704 -0.03606093 0.03702593 0.00094048056
000260 5e e7 3c 3c b2 72 26 3d f5 48 3d bd 19 d1 78 bd
       0.011529772 0.040636726 -0.046212155 -0.060746286
000270 4e 2c b8 bc 8f 60 62 bd 9b 54 89 bd 1e a4 56 bd
       -0.022482064 -0.055267867 -0.0670559 -0.052402608
000280 a6 dd 48 bd 07 fe 3d 3b 0e 39 01 3d 5a 24 69 3c
       -0.049039505 0.0028990523 0.031548552 0.014229858
000290 79 4a 1b bd 19 cd 76 bd 8d 29 90 bc 6f 68 20 bd
       -0.03791282 -0.06025419 -0.017597938 -0.039162096
0002a0 64 a8 49 bd b3 9a 1f 3d 87 b3 49 bd 43 86 45 bd
       -0.049232855 0.038965892 -0.049243476 -0.048223745
0002b0 96 cf f6 3c 1e 8b b7 bc 46 13 6c bb 6b 20 04 3d
       0.030128282 -0.022405203 -0.003602223 0.03225748
0002c0 f3 31 0e 3d 49 1b 5a 3d 09 85 1b bd 88 29 8d 3c
       0.034715604 0.053248677 -0.03796867 0.017231718
0002d0 fe b2 21 bd 9d eb 1e bc 1d a1 36 3d ad ea 42 3d
       -0.03947734 -0.009699729 0.044587243 0.047587086
0002e0 3e 26 6a bd 33 99 1c bd 3f 5d 26 bd 06 bb 48 3d
       -0.057165377 -0.03823204 -0.04061627 0.049006484
0002f0 34 d8 20 3b 5a 7e 53 3d fe b1 ec 3c fd 84 31 bd
       0.002454293 0.05163417 0.028893467 -0.043339718
000300 d0 a1 23 bc 19 5f 69 3c 0c 53 0b 3d 51 18 38 bd
       -0.00998731 0.014243864 0.034014747 -0.044945065
000310 a4 bb 22 3c 99 99 6b bd e6 24 31 3d f5 8b 69 3c
       0.009932432 -0.05751953 0.04324808 0.01425456
000320 c1 c4 6e 3d e6 39 e8 ba 7d ef 25 3d dc de 59 bd
       0.058293108 -0.001771745 0.040511597 -0.05319105
000330 74 ad de 3c 82 5d 10 3d 52 b4 52 bd fc 94 c1 3c
       0.027182318 0.035245426 -0.051441498 0.023630612
000340 81 39 c5 bc 05 0b 82 bd 2d 21 bd 3a fe 03 05 3d
       -0.024075272 -0.06349758 0.0014429443 0.03247451
000350 6e c9 52 bd b5 c8 7f bd 72 ff 8e bd fd 26 1b 3d
       -0.05146163 -0.06244727 -0.06982316 0.03787898
000360 42 76 0a bd 54 d2 c1 3c 25 ed fb 3c 5b 7f a8 bc
       -0.033804186 0.023659863 0.030752728 -0.02056854
000370 5a 3e 06 3d 6e b9 26 3c 47 c6 14 3d 1e ff 9f 3c
       0.032774307 0.010176046 0.036321905 0.019530829
000380 8d 0f 11 bd 37 5c 13 bc 2e a8 93 bd bc 01 b2 3c
       -0.03541522 -0.008994154 -0.07209812 0.021729343
000390 d0 fc 19 3d d3 3a 05 bc 16 b4 0c bd 26 30 b3 bc
       0.037594616 -0.008131701 -0.03435143 -0.021873545
0003a0 e2 68 82 bc e9 19 81 bd b7 be 3b bd 46 6c cb 3c
       -0.015919153 -0.0630377 -0.045836177 0.024831902
0003b0 d6 1f 89 bd 63 8c d3 bc 4f 50 1f bb 6c 7a 1a 3d
       -0.06695525 -0.025823778 -0.0024309342 0.037714407
0003c0 1a 12 0e 3d 83 ce 38 3a 08 21 5c bd 7f 02 ae bc
       0.03468523 0.00070498156 -0.05374244 -0.021241425
0003d0 9e 12 30 bd 90 3d e3 bc 64 b4 25 3c e9 81 18 bd
       -0.042986505 -0.027739316 0.010113809 -0.037233267
0003e0 90 c1 50 bd 91 1d 5d bc 1d 7f 36 3d 45 65 2a bd
       -0.050965846 -0.013495819 0.04455482 -0.041600484
0003f0 16 86 d7 ba 78 1c 89 3c 61 f6 9e 3c 21 0c 8a 3c
       -0.0016443159 0.016737208 0.019404592 0.016851487

layers.0.conv.3.bias f4 [32]
000000 12 d2 84 bb 4c ff 19 3d 30 81 38 3d d8 32 1c 3d
       -0.0040533626 0.037596986 0.045045078 0.038134426
000010 0d 75 bf bc fe 9f ff 3c 08 50 82 bc c8 8d 46 3c
       -0.023371244 0.03120422 -0.015907302 0.012118764
000020 7a 70 59 bd 9f fd 2a 3c 90 12 d6 3c da 81 ff 3b
       -0.05308578 0.010436445 0.026131898 0.007797462
000030 99 74 21 bd 1c c7 00 3d 9b f6 05 bb 1f 46 4a 3d
       -0.039417837 0.031439885 -0.0020441178 0.04938328
000040 c0 07 80 bc 95 40 36 3d 13 31 c6 3a 93 04 56 bd
       -0.015628695 0.044495184 0.0015120826 -0.052250456
000050 f3 7e 44 3d df 82 b3 bc df ae d8 3c 7e 4e 56 3d
       0.04797263 -0.02191299 0.026450573 0.05232095
000060 7f bc c7 3b 7d 1c 6c bd 11 32 49 bd 3a d0 54 bd
       0.0060954685 -0.057644356 -0.049120013 -0.051956393
000070 e4 32 47 bd 16 18 aa bc f1 3d 22 3d e2 b4 3c bd
       -0.048632517 -0.020763438 0.039609853 -0.04607094

layers.0.conv.4.weight f4 [32]
000000 9c 5a 7e 3f 10 1f 7f 3f 62 76 7c 3f 22 a8 7d 3f
       0.9935701 0.9965677 0.9861814 0.99084675
000010 5b ed 7d 3f 13 7e 7f 3f a8 df 7b 3f 03 cd 7c 3f
       0.991903 0.9980175 0.9838815 0.98750323
000020 cb ca 7e 3f 37 ae 7d 3f 5e b0 7f 3f ce 49 7a 3f
       0.9952819 0.99093956 0.9987849 0.97768867
000030 7e 0e 7e 3f fb e3 81 3f c5 e2 7d 3f 91 50 7d 3f
       0.99240863 1.0147699 0.9917415 0.9895106
000040 69 4f 7e 3f 7d 02 80 3f 91 1b 7f 3f cf 5b 7e 3f
       0.9933992 1.0000759 0.9965144 0.9935884
000050 dc df 78 3f e6 e0 7f 3f 9e 9f 80 3f 0d 1c 7d 3f
       0.9721658 0.9995254 1.0048711 0.9887093
000060 99 5a 7c 3f 93 f3 7e 3f cb 64 7f 3f bf 42 80 3f
       0.9857574 0.99590415 0.9976317 1.0020369
000070 07 7e 7f 3f 88 13 80 3f 90 0a 81 3f 9b a4 7c 3f
       0.9980168 1.000596 1.0081348 0.9868867

layers.0.conv.4.bias f4 [32]
000000 40 ec 00 bc 84 91 cb bc 88 d3 bb bc 77 c8 be bb
       -0.007868826 -0.02484966 -0.022928014 -0.005822237
000010 1a 2d 93 bb 21 26 a4 bc fe 6d 13 bd 30 b0 89 bc
       -0.0044914605 -0.020037713 -0.03599357 -0.016807646
000020 b1 c6 a6 3b 61 6a d3 bb 54 84 f3 bb be 69 25 bc
       0.005089604 -0.0064518903 -0.007431546 -0.010096012
000030 e9 fd de b9 09 ac 89 bc 55 2f b7 bc dd 4a b6 bc
       -0.00042532317 -0.016805666 -0.022361437 -0.022252494
000040 4b f8 48 bc 8c a4 85 bc 31 cf 84 bc 39 1e 28 bb
       -0.012266229 -0.016313814 -0.016212078 -0.002565278
000050 27 af d4 bc a2 5f a4 bc 51 0c 53 3c 11 88 ad bb
       -0.025962425 -0.020065133 0.012881354 -0.0052957614
000060 3a ee 64 bc 09 10 20 bc d9 7b 4e bc 00 1a f2 bc
       -0.013972813 -0.009769448 -0.01260277 -0.029553413
000070 12 89 1b bc ba 27 b0 3a 21 1d 21 bc 27 32 c8 bb
       -0.009493129 0.0013439574 -0.009833605 -0.0061094943

layers.0.conv.4.running_mean f4 [32]
000000 0a af 2e bf bb 6b 45 3f 8c f2 17 3f 99 4f ec 3d
       -0.6823584 0.7711751 0.5935447 0.115386195
000010 37 cb 1d be fb a0 98 3f dc 6a 0b 3f 70 3d 7a 3e
       -0.15409552 1.1924127 0.5445993 0.24437499
000020 03 d6 3d bd aa 44 f9 be 38 45 10 bf 92 15 08 bf
       -0.046346676 -0.486852 -0.5635562 -0.53157914
000030 64 12 85 bf 60 db 83 bf 32 b2 e1 3e 8c bd 3f 3f
       -1.0396237 -1.0301323 0.44081265 0.748986
000040 c9 d8 02 bf 27 2b 7a 3f 6b e5 57 3f 91 fb a2 3e
       -0.5111204 0.97722095 0.8433444 0.31832555
000050 ef a3 86 3f f4 a3 36 3f d8 db 89 bf 4f aa 46 3d
       1.0518779 0.7134392 -1.0770216 0.048502263
000060 73 9e 2c 3e 13 8f 0f bf 78 98 56 bf 3a e0 2a 3f
       0.16857319 -0.5607769 -0.838264 0.6674839
000070 bb 4e 57 bf bd 7a 26 bf 42 ce 9c bf d3 0a f3 bd
       -0.8410451 -0.65031034 -1.2250445 -0.11867299

layers.0.conv.4.running_var f4 [32]
000000 ae 96 61 3f 68 2b cd 3e 64 88 9d 3e 16 60 64 3f
       0.88120544 0.4007218 0.3076812 0.89209116
000010 08 0e 10 3f a6 31 44 3f 2c 09 86 3e ae ab 72 3f
       0.5627141 0.7663826 0.26178873 0.9479321
000020 4c d3 a2 3f 58 d3 04 3f d6 cb 89 3e b1 5d 93 3f
       1.2720733 0.51884985 0.26913327 1.1512967
000030 98 4f d6 3f 3d 24 cf 3e 18 3d 8f 3e 2b ed 3e 3e
       1.674304 0.40457335 0.27976298 0.1864516
000040 a6 61 73 3e 18 f3 51 3f bd 67 62 3f cf 2c 55 3f
       0.23767719 0.82011557 0.8843954 0.832715
000050 7b 62 9b 3e 5d 85 eb 3e f7 aa 8c 3f 64 61 92 3f
       0.30348572 0.46000186 1.0989674 1.1435971
000060 b1 f8 0a 3f fc ff e9 3e bb 89 dd 3f ed 81 c5 3e
       0.5428572 0.45703113 1.7307657 0.38575688
000070 f9 05 ae 3e da e4 1e 3f 0f db 46 3f 45 14 9e 3f
       0.33988932 0.6206795 0.77678007 1.2349936

layers.1.pool.1.conv.0.weight f4 [64, 32, 3, 3]
000000 0a 69 49 bc 4f 7c 5b 3d 0a 7d 1d 3d bd 74 13 bd
       -0.01229311 0.053585347 0.038449325 -0.036000002
000010 0d f1 25 bd b1 ae 07 bd 66 b2 9b bc d9 84 1b 3d
       -0.040513087 -0.033125583 -0.019005965 0.03796849
000020 6f f1 c6 3c 16 be 4a bd be 66 21 bc b6 2c 61 bd
       0.024285046 -0.049497686 -0.009851156 -0.05497428
000030 66 3f 25 bd 2f 23 08 3d 41 be 25 bd 24 5d 51 bd
       -0.040343665 0.03323668 -0.040464643 -0.051114216
000040 b6 5e 94 ba 43 2b be bc 24 87 34 bd 5d 77 d4 3c
       -0.001131973 -0.023213988 -0.044074193 0.025935823
000050 8b 5e 1b 3d 50 22 cd 3c 0e 05 dd 3c 03 11 42 3d
       0.03793196 0.025040776 0.02697995 0.047379505
000060 40 64 4e bd 6e 46 41 39 82 08 ba bc 89 ee 2c bd
       -0.050388575 0.00018432151 -0.022709135 -0.042219672
000070 27 6f f3 bc 61 be fc ba f2 05 1c 3d 25 ef 77 bd
       -0.029716088 -0.0019282812 0.038091607 -0.0605308
000080 a9 bd 6b bd 27 77 d4 3c 5d ec f9 bb 32 69 fb 3c
       -0.05755392 0.025935723 -0.0076270537 0.03068981
000090 cf 81 c6 3b 74 1b 54 3d 63 66 7d 3c d5 d1 cd 3c
       0.006057955 0.051783994 0.015466305 0.02512447
0000a0 c5 51 0c bd 6e 13 2f 3d cc 93 2a 3d 32 66 c6 3c
       -0.03425767 0.04274314 0.041644856 0.024218652
0000b0 87 04 58 3d 6b bd a0 3c e7 39 4c bd e8 b5 ab 3b
       0.052738693 0.019621572 -0.049859907 0.005240191
0000c0 ca c7 2c bc fb cc 15 3d 00 ba 54 bc bf 79 f6 3c
       -0.01054568 0.036572438 -0.012983799 0.03008735
0000d0 b3 db 08 3d e0 4c 61 3d c4 b3 fb bb b4 17 40 bc
       0.033412647 0.055004954 -0.007681342 -0.011724401
0000e0 3c e5 ad bc 60 d8 6b 3c 8b 13 df bb 03 5b 22 bd
       -0.021227472 0.01439485 -0.0068077496 -0.039637577
0000f0 a6 f1 11 bd 9e dc d0 bc 1e ff 49 bc 95 a0 3b bd
       -0.035630845 -0.025495823 -0.012328891 -0.04580744
000100 6d b5 42 3d 9d c0 ad 3c e9 03 8d bd fa 06 1d 3d
       0.047536302 0.02121001 -0.068855114 0.03833673
000110 25 9d d3 3b 98 6d 5e bd 08 e1 bf bc c1 15 8b bd
       0.006457942 -0.054303735 -0.023422733 -0.067912586
000120 46 89 c6 3c 1a 40 0b b9 19 22 91 bc e1 b8 86 bd
       0.024235379 -0.00013279953 -0.017716454 -0.065782316
000130 04 de 06 bc 5b f0 26 3d 26 68 0a bc 2b 0c 03 bd
       -0.008231644 0.040756565 -0.0084476825 -0.031994026
000140 7f 7b 8b bc 56 cb cc bc ef 90 65 bd cc a9 a0 bc
       -0.017026661 -0.024999302 -0.056046423 -0.019612215
000150 e8 0c 95 bc f6 ec a1 bc 97 e6 09 3c 97 53 22 ba
       -0.01819463 -0.019766312 0.008416793 -0.00061922654
000160 7f 32 09 3d 63 e3 42 bd a2 43 48 bd 5d 92 65 bd
       0.033495422 -0.047580134 -0.048892625 -0.056047786
000170 a5 b0 f3 3c 61 b9 ae 3c 9e 7c b1 bc e0 45 54 3d
       0.029747317 0.02132863 -0.021665867 0.05182445
000180 15 fb c8 bc 70 5c ca bc a7 2a 04 3d f5 c1 db 3c
       -0.024533788 -0.02470228 0.03226724 0.026825884
000190 50 b1 0f 3d 1a b6 34 bc aa ae 77 bd 6b 55 45 3d
       0.035081208 -0.0110297445 -0.060469307 0.048177164
0001a0 81 25 c9 bc 6d 4d 87 3c c6 58 c0 3c ea 95 6b bd
       -0.024554016 0.016516412 0.02347983 -0.057516016
0001b0 3a e4 b6 bc 9a c1 08 bd b8 1d 8a bb 31 9c 6f 3d
       -0.022325624 -0.033387758 -0.0042149685 0.058498565
0001c0 34 05 16 3d c3 b3 13 3d 54 af 26 3d 1f 2b 5f 3d
       0.036626056 0.036060106 0.04069455 0.054484483
0001d0 7f b9 dc 3c 6a 38 d8 bb f0 9a 1a bd 56 e9 3e 3d
       0.02694392 -0.006598522 -0.037745416 0.046609245
0001e0 88 7b e7 3c 2d b9 e1 bc fb ad 68 3c 8d 89 16 bd
       0.028257146 -0.027554119 0.014201636 -0.036752272
0001f0 ff 68 01 bd 95 b7 68 bc a2 b0 41 bc 50 f8 69 bc
       -0.031594273 -0.014203926 -0.011821898 -0.014280394
000200 8e ab 7d 3d 6c ee 6c 3d e6 83 0f 3d 87 92 54 3d
       0.061931185 0.057844564 0.035037898 0.051897552
000210 2c 16 0c 3d 27 56 29 3d 62 2e b0 bc 8c 87 d7 3c
       0.034200832 0.041341927 -0.021506492 0.026309751
000220 db 7c 90 3b f4 91 a6 bc 27 62 4e 3c fb b9 1a bd
       0.004409415 -0.020333268 0.0125966435 -0.03777502
000230 95 6c a7 ba 61 53 cf bc 04 40 94 bc 20 72 32 bb
       -0.0012773449 -0.025308313 -0.018096931 -0.0027228668
000240 01 eb 7a 3d b4 a1 7f 3c 4c e8 09 3d 30 fa 74 3b
       0.061259273 0.015602518 0.0336688 0.0037380569
000250 6e 13 c5 3c 08 b2 79 3d 1d a2 5c 3d 6a eb 37 bc
       0.024057116 0.0609608 0.05386554 -0.011225561
000260 e7 cd 30 3d 6e 64 91 3c bf 5c 34 ba c2 8e 52 bd
       0.043165114 0.017748084 -0.00068802753 -0.051405676
000270 3b ce 9c bb 9b 81 2d bd 1f 4a 68 bc 3b 26 70 bc
       -0.004785327 -0.04235993 -0.014177828 -0.014657552
000280 d2 da f5 bb 31 3e ab bc e2 db da bc 1f cb ad bc
       -0.007502892 -0.020903679 -0.026716176 -0.02121502
000290 95 9a de bc 84 8d cc 3c 53 97 41 bd 98 42 6a 3c
       -0.02717332 0.024969824 -0.047263455 0.014298104
0002a0 c7 84 5e 3d 3c 12 74 3d 63 18 87 3d 86 21 07 bd
       0.054325845 0.059587702 0.06596448 -0.032990955
0002b0 2a c9 a2 bc ff 92 50 bd d6 a9 0c 3d 81 d7 fe bc
       -0.019871313 -0.050921436 0.034341656 -0.03110862
0002c0 54 c5 6f bd 5d c1 8a bd 35 1f eb bc 75 26 09 3c
       -0.058537796 -0.06775162 -0.028701404 0.008370985
0002d0 a1 ea b9 bb d0 b4 26 bc f8 b8 1b bd 12 07 62 bd
       -0.005673722 -0.010174945 -0.038018197 -0.055182524
0002e0 d9 62 dd bc 55 08 db bc 54 fb a4 bc 37 7a ff 3c
       -0.027024673 -0.026737371 -0.020139374 0.031186206
0002f0 11 76 1f 3d 9a e4 12 3d 2e 54 49 bd f7 e2 4c 3d
       0.038930956 0.035862543 -0.049152546 0.050021138
000300 80 a9 02 3d 1e ae 65 3c 58 17 43 3d f5 81 85 3d
       0.03189993 0.014018564 0.047629684 0.06518928
000310 db 18 6a 3c 69 bf 4a bd 5d 67 52 bc 00 18 13 bd
       0.014288153 -0.04949895 -0.012842027 -0.03591156
000320 d2 95 17 3a 92 99 a1 3c 75 57 c4 3b a8 5c 9d bc
       0.0005782518 0.019726548 0.005991871 -0.019209221
000330 2e a5 54 3d 34 40 5a bd f6 df ba 3c 2f 90 f0 3c
       0.05191534 -0.053283885 0.022811871 0.029365627
000340 ba 28 15 3d 28 58 35 3c 1a 41 2d 3d 10 ed e0 bc
       0.036415793 0.011068381 0.042298414 -0.02745679
000350 09 26 85 bd d0 7a ca 3c 3f b7 97 3c 58 d4 8b bd
       -0.06501395 0.024716765 0.018519996 -0.06827611
000360 b0 d7 03 3d 4f ff 3b 3d 3d 14 29 3d 1b 5a 7b bd
       0.032188118 0.045897778 0.041279066 -0.06136523
000370 50 3b 27 3d 1c 01 3c bc df d4 32 3d a7 ee 01 3c
       0.04082805 -0.011474874 0.04366004 0.007930434
000380 c0 7d 38 3c 4d 23 d5 3c 32 64 23 bd bf a6 d3 bc
       0.01126045 0.02601781 -0.039890476 -0.025836347
000390 24 db 41 bd a4 35 09 3d 5a 28 58 bd 51 c2 f7 3b
       -0.04732813 0.03349842 -0.052772857 0.007561006
0003a0 3d 59 7e 3c bb d6 6d bc 0f 35 20 3b 0d 70 6a 3d
       0.015524206 -0.014516528 0.0024445688 0.057235766
0003b0 bb 12 e6 3a 32 6f 8e bc ad da bd bc 0a 3f ec 3c
       0.001755319 -0.017387006 -0.023175562 0.028838653
0003c0 44 56 61 3d 7e 60 f6 bc b6 0e ad bc 10 1a ef bc
       0.05501391 -0.030075308 -0.021125179 -0.029187232
0003d0 d7 42 f3 38 61 bb c6 bc e9 36 29 bd bb 04 b6 3c
       0.00011599593 -0.024259271 -0.041312132 0.022219053
0003e0 48 8a 5a 3d 04 a5 c4 3c 05 6d f3 3c a5 2d 3b 3d
       0.05335453 0.024004467 0.02971507 0.045697827
0003f0 3f 9d 2b bc 1d e0 24 3d 4a bb e4 bc a2 e9 73 bb
       -0.010474502 0.040252794 -0.027921338 -0.0037218113

layers.1.pool.1.conv.0.bias f4 [64]
000000 db 8a 71 3d 13 32 39 bd 9b 84 5f 3d cf f2 40 bd
       0.058970314 -0.04521377 0.05456982 -0.04710656
000010 6b 8b 89 bc a9 04 0e bd 8c 50 42 ba cf 72 00 bd
       -0.016790112 -0.034672413 -0.0007412515 -0.03135949
000020 ca 5c 44 bc ba 36 ac 3a b1 8f 5c bd 72 25 66 3d
       -0.011985013 0.0013138868 -0.053847972 0.056188054
000030 e7 15 b9 bc d1 b9 47 bc 00 d0 de bb 0a 97 6e bc
       -0.022593452 -0.012190298 -0.006799698 -0.014562378
000040 f8 1a 70 3d 3d d3 3f bd d9 8e 03 bd 98 59 50 bd
       0.05861947 -0.046832312 -0.032118652 -0.050866693
000050 85 b4 11 3d 27 12 32 bd 79 b5 fd 3c b1 df c6 b9
       0.035572547 -0.043474343 0.030970322 -0.00037932166
000060 70 7a ba bb 5c 4d 14 3c 17 55 2b 3c 23 40 4d bd
       -0.005690865 0.009051647 0.010457299 -0.050109994
000070 bd 3d 63 3d 06 f9 3b 3d af 3f 21 bd 90 8d 05 3d
       0.0554788 0.045891784 -0.039367374 0.032605708
000080 78 5b 23 bd 87 32 a3 bb 77 84 44 bc 74 66 05 3d
       -0.039882153 -0.0049803886 -0.011994473 0.03256841
000090 05 0f 82 3b 9a 3d 19 3d 1e 80 58 3d cf e9 9d 3c
       0.0039690756 0.037412263 0.052856557 0.019276528
0000a0 77 ca 65 bc f3 2b 45 3d e9 80 60 3c 9a 34 54 3b
       -0.014025322 0.048137616 0.01370261 0.0032379986
0000b0 fd ef 19 bd 1e 90 32 3c d9 fe 5c 3d 6f df 56 bd
       -0.037582386 0.010898618 0.05395398 -0.052459177
0000c0 53 7f ac 3c b2 91 e3 bb 0b 1c ac bc 6b 7f 6b 3d
       0.021056807 -0.0069448585 -0.021009466 0.057494562
0000d0 a7 e5 16 3d 68 73 01 bc 76 70 d1 bb a3 e6 d0 3c
       0.036840107 -0.00790105 -0.00639158 0.025500601
0000e0 b6 49 56 bd c9 1e 19 bc d4 03 48 bd 77 73 10 bd
       -0.05231639 -0.009345719 -0.048831776 -0.035266366
0000f0 49 5f b9 3c 46 e6 ad bb 52 d6 06 3d fb d0 49 3d
       0.022628443 -0.0053069917 0.032919236 0.049271565

layers.1.pool.1.conv.1.weight f4 [64]
000000 f5 b4 79 3f bc 4d 80 3f dc 9b 80 3f 58 81 80 3f
       0.97541744 1.0023723 1.0047565 1.0039473
000010 09 00 7f 3f e3 e6 7d 3f ad af 80 3f e3 d9 7e 3f
       0.9960943 0.9918043 1.0053612 0.9955122
000020 26 22 80 3f d4 c9 7e 3f 2a 55 7b 3f cf 4f 7f 3f
       1.0010421 0.99526715 0.98176825 0.99731153
000030 f3 c1 80 3f 66 05 7d 3f 81 6a 7c 3f 32 af 7d 3f
       1.0059189 0.9883636 0.9860001 0.9909545
000040 ad 7e 7f 3f 35 d8 7d 3f ff 3f 7e 3f 3f 05 81 3f
       0.99802667 0.9915803 0.993164 1.0079726
000050 8e 68 80 3f 34 9e 7d 3f 2b c0 7e 3f 91 c7 7b 3f
       1.0031908 0.99069524 0.99511975 0.9835139
000060 2b df 7d 3f 14 bb 7f 3f d4 3e 7f 3f e1 f2 7e 3f
       0.9916865 0.99894834 0.99705243 0.99589354
000070 79 c3 7d 3f 3b 6b 82 3f 8b 36 81 3f 47 0c 82 3f
       0.9912639 1.0188974 1.009477 1.0159997
000080 bc d9 7c 3f 05 b3 7f 3f eb c0 7d 3f 0e 4e 7d 3f
       0.98769736 0.9988254 0.99122494 0.98947227
000090 01 8b 7a 3f 24 9e 80 3f 41 36 81 3f 79 3a 81 3f
       0.97868353 1.0048261 1.0094682 1.009597
0000a0 e2 ac 81 3f 5f 0e 7f 3f 59 46 7f 3f 7e 26 7e 3f
       1.0130885 0.99631304 0.99716717 0.99277484
0000b0 a0 ab 7e 3f 2f 32 80 3f 4d e5 7f 3f a3 c4 80 3f
       0.9948063 1.0015315 0.9995926 1.0060009
0000c0 38 c3 80 3f a9 9e 80 3f 49 f3 7f 3f 73 ca 80 3f
       1.0059576 1.0048419 0.999806 1.0061783
0000d0 49 1d 7e 3f 1f 29 80 3f 03 28 7b 3f bd 0e 80 3f
       0.99263436 1.0012549 0.9810793 1.0004498
0000e0 a0 6e 7f 3f 62 3a 81 3f 13 27 7d 3f c9 da 81 3f
       0.99778175 1.0095942 0.9888775 1.0144893
0000f0 0c a4 7f 3f 82 8a 7e 3f 7b 15 80 3f 05 21 81 3f
       0.9985969 0.99430096 1.0006555 1.0088202

layers.1.pool.1.conv.1.bias f4 [64]
000000 2a 65 8f bc 88 dc e1 3b 2a 9b 28 bd 70 cf 6c 3a
       -0.017504293 0.0068927445 -0.0411636 0.0009033596
000010 14 5a 36 bb cd 7e cf b9 84 25 94 bc 77 21 51 bc
       -0.0027824687 -0.0003957659 -0.018084295 -0.012764326
000020 58 b5 bc 3a b7 fa c4 bb 6a bb f5 bc 50 1c f0 bc
       0.0014397306 -0.006011333 -0.029996593 -0.029310375
000030 56 4c 39 bd 2b 1d 02 bc ef 5e 8b bc 16 c2 0f bc
       -0.045238815 -0.0079415245 -0.017013041 -0.008774301
000040 90 84 2e bb 93 95 d7 3a 8c 2a 8b bc 81 20 57 bc
       -0.0026629306 0.0016447775 -0.016988061 -0.013130308
000050 e4 fa cd ba f1 5f a4 bc db 20 57 bc 1f 81 22 bc
       -0.001571503 -0.02006528 -0.013130392 -0.00991848
000060 10 aa c8 3b 5d 07 5b bc b2 df 38 bc 65 db 48 bc
       0.0061237887 -0.013368455 -0.011283802 -0.012259339
000070 86 83 a7 bc 58 dc 4e 3b 4a 8b 04 bd 41 f4 11 bd
       -0.020448457 0.003156444 -0.0323594 -0.03563333
000080 b2 a6 2c bc 3b f7 9e bc 23 46 bc bc 90 7b 33 bc
       -0.01053779 -0.019404998 -0.022982663 -0.010954753
000090 4a 31 99 bc db e6 03 bd 5c 0c fd bc b8 87 e5 bc
       -0.01870026 -0.032202583 -0.030889682 -0.028018817
0000a0 a8 13 4e bc 57 80 ac bc 41 84 09 bc ee 11 75 bc
       -0.012577929 -0.021057291 -0.008393348 -0.014957888
0000b0 9c 4d ce bb 61 bb 6c bb 72 80 f0 3a a5 25 f2 bc
       -0.006295873 -0.0036122429 0.0018348827 -0.029558966
0000c0 3c 4c 80 3b 68 5d 8b bc bf ca 80 bb 0e 9e d9 bc
       0.003915338 -0.017012313 -0.003930419 -0.026564624
0000d0 2c c3 e4 bc 74 b3 12 bc 85 1f 84 bc e9 60 da bc
       -0.027925096 -0.008953918 -0.016128311 -0.026657538
0000e0 ba e4 8f bc 30 01 c4 3c 7f 45 0a 3b 45 b8 12 bd
       -0.01756512 0.023926347 0.0021098552 -0.035820264
0000f0 78 82 0c bb fd 39 99 bb 41 e4 cc bc 75 39 15 bd
       -0.002144007 -0.004676102 -0.025011184 -0.03643175

layers.1.pool.1.conv.1.running_mean f4 [64]
000000 9e 90 d9 bd e0 08 05 be 47 b6 23 3e 98 04 a1 be
       -0.10623287 -0.12991667 0.15987502 -0.31448817
000010 e5 72 ed 3e 71 ff 1c bf fc 6a c6 3d f5 35 1e be
       0.4637672 -0.6132727 0.096883744 -0.1545027
000020 dd bb 18 bf de 1b 5e 3c c1 a0 04 bf b9 05 3f bd
       -0.59661657 0.013556449 -0.5180779 -0.046636317
000030 a3 9c 65 bf 6b 13 0c bf 00 cf 49 3e a9 f1 3d 3e
       -0.89692134 -0.5471713 0.1970787 0.18549217
000040 1b ff 29 bd a5 26 c9 bc 36 0e e0 3d 8e a9 e8 3d
       -0.041503053 -0.02455456 0.109402105 0.11360465
000050 1b 6c 48 be a0 e8 ad 3e d4 98 dc 3c 59 af ce be
       -0.19572489 0.3396654 0.026928343 -0.40368155
000060 1f e0 2e 3e b1 ca 2a bd 93 fb 8e be 44 85 89 bd
       0.17077683 -0.041697208 -0.2792631 -0.067148715
000070 8f a4 0b 3b db e0 ce be 3a 9c 34 3d a8 5d 42 bf
       0.0021307801 -0.40405926 0.0440943 -0.7592416
000080 47 68 30 3f 86 bb cb be 2d 52 46 be 48 56 c7 be
       0.68909115 -0.39791507 -0.19367285 -0.38933015
000090 11 4e 72 be 3d d0 3a 3f 7e e6 25 bf 92 33 6f be
       -0.23662592 0.72973996 -0.6480483 -0.23359516
0000a0 3f 9f 2e bf 75 8f 94 3e 2e 82 65 bc c0 db 07 3e
       -0.6821174 0.290157 -0.014008088 0.13267422
0000b0 2d d3 5a be 1a 46 34 bf b7 e0 bb 3e 7d 5b 90 be
       -0.2136962 -0.70419466 0.3669488 -0.281948
0000c0 3d 48 11 bf cc b7 17 be 64 05 83 3e e7 12 f5 3e
       -0.5675085 -0.14816207 0.2559005 0.47865984
0000d0 91 b1 a0 3e fb f0 72 3e 95 e0 f8 3d 2f 93 8f 3e
       0.31385472 0.23724739 0.121522106 0.2804198
0000e0 27 47 16 3e d8 63 63 be 5a ae 56 bf 77 e9 c1 be
       0.1467558 -0.22206056 -0.8385979 -0.37873432
0000f0 cc 70 01 3e 22 ac 85 bd 85 29 89 3e bd d3 c1 3e
       0.12640685 -0.06526972 0.2678949 0.37856856

layers.1.pool.1.conv.1.running_var f4 [64]
000000 98 3d 4b 3e 1d 0f 37 3f 5d 82 71 3e ed c6 20 3f
       0.19847715 0.71507436 0.23584886 0.62803537
000010 6f f3 a4 3d df 92 20 3f 34 d6 ed 3e f4 ca 95 3d
       0.08054244 0.6272411 0.46452487 0.07314101
000020 e2 0d a5 3e a6 f2 d0 3e ea 81 63 3e 24 68 4d 3e
       0.32237154 0.40810126 0.22217527 0.20059258
000030 aa 0e a8 3e 76 59 4c 3f 4e e7 88 3e ab 29 d7 3e
       0.32823688 0.79824007 0.2673897 0.42023978
000040 4f 64 1b 3f 46 7f 8b 3e d8 4d ac 3e 1e ac 4a 3e
       0.60699934 0.2724554 0.3365314 0.1979222
000050 7b fa e0 3e f8 41 cc 3e 93 94 2e 3e 69 c5 2e 3f
       0.439411 0.3989408 0.17048864 0.68269974
000060 8c 62 95 3e 5a 2b 11 3f 4e 17 2f 3e c3 94 85 3d
       0.29176748 0.56706774 0.17098734 0.06522515
000070 df ec c9 3d 3c 04 8d 3e 8e f8 70 3e 3c b1 81 3e
       0.09859633 0.27542293 0.23532316 0.25330532
000080 de 18 b8 3d 56 63 a7 3e fe 31 30 3e 83 3c 10 3f
       0.08989118 0.32692975 0.1720657 0.56342334
000090 9d 71 37 3f ed 12 b2 3e 34 a2 70 3e f5 a3 3f 3e
       0.71657735 0.34780064 0.23499376 0.18714888
0000a0 65 99 93 3e e9 9d 1b 3d c5 be 8e 3e 12 f9 1d 3f
       0.28827968 0.03799239 0.2787992 0.61708176
0000b0 0c 75 d9 3e d9 20 a4 3e e3 90 2e 3f 94 32 48 3e
       0.42472112 0.3205631 0.6818983 0.19550544
0000c0 a5 a9 37 3f dd 85 bd 3e 44 92 92 3e 28 e2 9c 3e
       0.7174323 0.37016192 0.28627217 0.30641294
0000d0 f5 04 77 3e c6 b2 15 3d 46 5f 04 3f 48 93 09 3e
       0.24122985 0.036547445 0.51707876 0.1343509
0000e0 ac f2 e3 3c 4f 42 05 3f 46 a3 3b 3f 2f 4d 4e 3e
       0.027825676 0.52054304 0.7329601 0.2014663
0000f0 00 33 11 3f 1c c9 94 3e f4 c5 6a 3e c1 3f 25 3e
       0.56718445 0.29059684 0.22927076 0.16137601

layers.1.pool.1.conv.3.weight f4 [64, 64, 3, 3]
000000 14 24 b4 bc 35 54 4a 3c 54 5d 61 3c 48 06 b2 3c
       -0.02198986 0.012349178 0.013755161 0.02173151
000010 b0 57 36 3d 2d 83 42 3d f7 c3 9e bc 30 17 45 bc
       0.04451722 0.04748838 -0.019380553 -0.012029454
000020 5a 51 bb 3c a1 3b cf bb 6d 7b cb bc aa 5c 15 b9
       0.02286594 -0.006324247 -0.024839127 -0.00014244267
000030 c0 4e c8 bc 29 b2 f0 bb 09 0c 8e 3c 3f 15 40 bd
       -0.024451613 -0.007345457 0.017339723 -0.04689526
000040 da 4d ee bb 64 a1 06 ba 1d 7d 2a 3c a0 3f c9 bb
       -0.007272464 -0.00051357434 0.010405806 -0.006141618
000050 cf 4b a3 bc 09 8f d4 3c 22 1b 8b bc 7e 9a 8d bc
       -0.01993361 0.02594711 -0.016980711 -0.017285582
000060 bf c2 48 bc 90 bc 27 bd 0b c7 07 bd b2 ab c1 3c
       -0.012253462 -0.04095131 -0.033148807 0.023641441
000070 12 ac c5 3c 11 d8 ce 3c 0b 3e 8a bc 13 2b fe 3b
       0.024129901 0.025249513 -0.016875288 0.0077565997
000080 16 16 9b 3c ca 54 91 3b 20 8a da 3c d2 28 bd 3c
       0.01893143 0.0044351565 0.026677191 0.023090754
000090 65 f0 cf bc 14 6b 17 bd a8 64 1a 3d 61 35 02 bc
       -0.025383184 -0.036967352 0.03769365 -0.007947297
0000a0 0f c9 15 3c 51 6c 11 3d b2 c7 0e 3c 97 61 03 3d
       0.009142174 0.03550369 0.008714603 0.03207549
0000b0 37 f3 25 bc b8 5b a2 3b 11 3f 23 3c a5 27 30 bd
       -0.010128788 0.0049547814 0.009963767 -0.043006558
0000c0 3c 36 2f 3c 6f f0 d6 bb 3e d5 a9 bc e5 c0 77 3b
       0.010694083 -0.0065594236 -0.020731565 0.0037804183
0000d0 0d 84 c5 3c d4 6b 41 bd a5 f0 ba ba c8 f5 42 bd
       0.024110818 -0.047221974 -0.0014262391 -0.047597677
0000e0 e3 7e 4b bd 51 64 53 bd 9e e6 00 bd 8f 05 2c bd
       -0.049681555 -0.05160934 -0.031469934 -0.04199749
0000f0 b0 57 0b bd a2 d6 03 3c 0c eb 1b bd 70 56 bc bc
       -0.034019172 0.008046778 -0.038065955 -0.022990435
000100 a4 2c 7e bc 12 a8 0f 3d de bb f4 3a b3 6c 6f bc
       -0.015513573 0.035072394 0.0018671711 -0.014613318
000110 99 4e 05 bd 93 24 2c bc 1e 57 14 3d 87 0f e7 3c
       -0.03254566 -0.010506767 0.036215894 0.028205646
000120 85 ed 15 bd 29 1b 9d 3c 32 dc 05 bb ee 0c 19 3d
       -0.03660347 0.01917799 -0.0020425436 0.037365846
000130 35 10 5f bc 5a 53 13 bd 9c ad 13 3d a9 20 f9 bc
       -0.013614704 -0.035968162 0.03605424 -0.030411081
000140 b9 3e 0d 3d c1 27 6e bc 49 05 c9 3c 4d 4f 82 3c
       0.034483645 -0.014535845 0.024538653 0.015906954
000150 46 f3 7f ba 80 22 0e bc b8 d2 a6 bc 2e bf 8b 3c
       -0.00097637286 -0.008675218 -0.02036415 0.017058935
000160 20 4a a6 bc 7d 09 88 3c 3f db 1b bc 4d fe 16 3d
       -0.020299017 0.016606087 -0.009512722 0.036863614
000170 4f 8a 05 3d 1a fd ed 3c c0 d3 b4 bc 6e d9 1f bd
       0.032602604 0.029051352 -0.022073627 -0.039025716
000180 ba 6f fc bb 8d 59 ee 3c f4 9e 25 bd 63 a1 e6 3c
       -0.0077037485 0.029095436 -0.040434793 0.028153127
000190 0d cc cf 3b 19 69 30 3c d7 1d 2f bc 24 3a 93 bc
       0.0063414634 0.010767245 -0.010688267 -0.01797206
0001a0 f2 b8 6a 3b 87 ca e9 bb 08 e0 c4 3c d9 6f 02 3d
       0.0035815802 -0.007134739 0.024032608 0.031844947
0001b0 8e a7 c6 3b 22 5e e7 bc 75 d6 08 3d 6a 7d 87 3c
       0.0060624545 -0.028243128 0.033407647 0.016539294
0001c0 d9 fe cd bc fc ff 09 bd b6 cb 92 3c 96 75 af 3c
       -0.025145935 -0.03369139 0.017919403 0.021418374
0001d0 45 e8 0f bb 98 aa 31 3d 55 1a 99 3c 00 b1 b5 bc
       -0.0021958512 0.04337558 0.018689314 -0.022179127
0001e0 be f1 1b 3d 41 fd 13 bd 9a 2a 05 bd 5f e1 b8 3a
       0.03807234 -0.036130194 -0.03251133 0.0014105252
0001f0 7c 9e a1 3c 1b 37 92 bc ac 73 c4 3c e0 b3 08 bd
       0.019728892 -0.017848542 0.023980938 -0.033374667
000200 1e d1 32 bb 93 3d f5 3b ee db 2b bd 6e 62 cb 3c
       -0.0027285288 0.007484147 -0.04195779 0.024827208
000210 52 30 95 3c ca 88 d4 bc e7 0f 22 bd 55 d7 81 3c
       0.018211517 -0.025944132 -0.039565947 0.015849749
000220 58 c3 d8 bb 5e 61 5e bb db e2 12 bd a4 08 86 bc
       -0.0066150837 -0.0033932547 -0.035860877 -0.016361542
000230 0d f7 c7 bc 5a a0 c6 3c ef 4f aa 3b 7c 67 8d 3c
       -0.024409795 0.024246383 0.005197517 0.01726126
000240 43 95 75 3c f8 f1 2b bd d1 17 8b bc f0 3d e5 3c
       0.0149892 -0.041978806 -0.01697913 0.027983636
000250 ff bc f0 3b d9 5c 75 ba ba e9 c3 3c 7a 6a 34 bd
       0.007346749 -0.00093598437 0.02391516 -0.044046856
000260 a8 7f 3f ba 14 37 35 3c b3 cb 12 3d 06 3e ba bc
       -0.0007305094 0.011060495 0.035838794 -0.022734653
000270 68 62 8d 39 13 0c 6c 3a 93 d5 ca bc 4a 1b 0b bd
       0.00026966934 0.0009004485 -0.024760043 -0.03396157
000280 db 12 e6 bb f3 c8 8f 3c 06 9a ea 3c c3 04 69 bc
       -0.0070212907 0.017551875 0.028637897 -0.014222327
000290 e2 3e c0 3c bb dd cf 3c be 1e 31 bd cc b4 15 bd
       0.023467485 0.025374284 -0.04324221 -0.036549374
0002a0 76 26 0c 3d 4b 91 26 3c fe 67 7b 3b 6e 3c 7d bc
       0.034216367 0.0101664765 0.0038361545 -0.015456302
0002b0 8b 2e 2c bd 91 45 6e 3c c6 b6 e4 3c 5c c8 09 bd
       -0.042036574 0.014542953 0.027919184 -0.033638343
0002c0 d8 ff 43 bd 0a 37 c4 3c b8 ff 30 bd cc 75 dc bc
       -0.047851413 0.023952026 -0.043212622 -0.026911639
0002d0 56 75 87 3c de e8 d3 bc 44 ae 80 3c a1 3b 0d bd
       0.016535442 -0.025867876 0.015708096 -0.034480695
0002e0 5b 2a e5 3c 11 ae f6 bc c8 54 65 3b 21 c3 60 3c
       0.027974298 -0.030112298 0.003499316 0.013718397
0002f0 06 46 05 bd f0 7d 9d 3c 40 6a e2 39 46 2f 43 3c
       -0.032537483 0.01922509 0.00043185242 0.011913126
000300 8e 5d 69 3c 67 2a e1 3c 49 f0 23 bc 3a 6f 52 bc
       0.014243497 0.02748604 -0.010006019 -0.012843901
000310 c2 0a de bc a0 3e 66 3c 79 1c 09 bd 72 98 ed bc
       -0.02710474 0.014053017 -0.03347442 -0.029003356
000320 66 02 e4 3c 51 4b d3 3c 61 6d c8 bc 6e c7 9b 3c
       0.027833175 0.02579275 -0.024466218 0.019015994
000330 cf ea d7 bc 30 75 5d 3c 1d be e8 3c ff c5 ee bc
       -0.026357083 0.013516709 0.028410966 -0.029147146
000340 bf b5 ab 3c 81 32 e6 bb ca d0 da 3c f3 ee 01 3b
       0.020960687 -0.0070250635 0.026710887 0.0019826263
000350 0a 3a 8a bc dd 55 a3 3c 14 1f a0 bc b6 83 3e 3c
       -0.016873378 0.019938404 -0.01954607 0.011628082
000360 f0 56 1f bd 89 1b e1 3c 2a 29 c1 3c 22 f7 81 bc
       -0.03890127 0.02747895 0.023579199 -0.015864912
000370 e2 fd 19 3b 3b 53 d1 bc 4a 7e 00 bd e3 f2 1a 3b
       0.0023497273 -0.025552383 -0.03137044 0.0023643307
000380 08 4d e1 bc 03 e0 29 bd e7 26 f5 3c 5d b3 06 3d
       -0.027502552 -0.0414734 0.029925777 0.032885898
000390 6d 9c d6 3c 92 2e d6 3c 44 42 c9 3c d8 53 b8 bc
       0.026197637 0.026145253 0.02456773 -0.022500917
0003a0 76 91 94 3c 72 4e 2f bb 97 a0 2d 3b 40 72 b4 bc
       0.018135767 -0.0026749638 0.0026493424 -0.022027135
0003b0 19 64 1a bc a0 ac 06 3d 6c dd 83 bb 73 61 24 3c
       -0.009423279 0.03287947 -0.0040241983 0.010032999
0003c0 5c 95 e7 bc 99 1e a5 3c 89 99 a1 3a 3c 3f f9 bc
       -0.028269462 0.020156192 0.0012329082 -0.03042566
0003d0 95 92 ec 3c bd 68 8d 3c d5 ad c2 3a d7 74 c0 bc
       0.02887849 0.017261857 0.0014852831 -0.023493214
0003e0 52 f8 d4 bc be f8 e0 3a 09 7f 8b 39 51 88 8e bc
       -0.025997315 0.0017163975 0.00026606795 -0.017398985
0003f0 97 26 c6 bc 7d 9e dd 3c 97 74 ca bc 07 59 11 bd
       -0.024188323 0.027053112 -0.024713797 -0.035485294

layers.1.pool.1.conv.3.bias f4 [64]
000000 1a 0f e5 3c a7 2c f8 3b 25 c7 13 3c 72 9c 0f bd
       0.027961303 0.0075736823 0.009019648 -0.035061307
000010 18 36 0b 3b e2 df 7c bc d4 ef 41 3c c5 a8 06 bd
       0.002124196 -0.015434237 0.011836965 -0.032875795
000020 ee a1 b1 3c 71 6f e1 bc f8 44 8d 3c d6 94 a8 bb
       0.02168366 -0.02751896 0.0172448 -0.0051446958
000030 5a 10 17 bd b9 c9 20 bd 27 a9 bc 3c da 0f 4e bc
       -0.03688083 -0.039254878 0.023029877 -0.0125770215
000040 8b d3 3d 3c de 5a 4d 38 a8 96 94 3c b1 14 41 3b
       0.01158608 4.8960435e-05 0.018138245 0.0029461796
000050 f6 96 67 3b 3a c2 cd bb 72 75 32 3b db 7d e5 bc
       0.0035337782 -0.006279257 0.0027230647 -0.028014114
000060 89 63 25 3c 6b 9a 84 bb e2 d9 e7 3b 71 69 03 3d
       0.010094532 -0.0040467284 0.007075534 0.03208298
000070 dd 9e fc 3c 33 71 30 3c ab 65 32 3c 4c 1b 11 3d
       0.03083747 0.010769176 0.010888497 0.035426423
000080 c8 99 11 bd 02 8f bf b9 90 c4 3e 3c d9 ae e4 3b
       -0.035547048 -0.00036536908 0.011643544 0.0069788513
000090 3b ce 07 3d f3 81 cc 3a 59 69 99 3c 6e 10 93 3b
       0.03315566 0.0015602693 0.018726991 0.0044880426
0000a0 7d 44 c7 3a 9c fa c4 b8 96 ef e8 bb eb 83 eb 3c
       0.0015202906 -9.392688e-05 -0.007108639 0.028749427
0000b0 f6 ed cd bc c0 bd c2 3c 77 79 ec 3c 76 a9 08 3d
       -0.025137883 0.02377212 0.028866513 0.033364736
0000c0 76 62 0b bd 8e fa 98 3a ee 8e 7d bc 6b 53 f6 bb
       -0.034029447 0.0011671351 -0.015475972 -0.0075172684
0000d0 4e 0a 8b 3c 08 0c e9 3c 05 b9 f7 3a 25 0b c5 bc
       0.016972687 0.02844812 0.0018899745 -0.024053166
0000e0 7c ca 03 bd ad 2d c7 3c d6 3d a0 3c 24 73 8a 3c
       -0.032175526 0.024313772 0.019560736 0.016900606
0000f0 7b ad ae 3c b6 45 20 3d db c6 91 3c 0b 01 d6 bc
       0.021322956 0.03912898 0.017795017 -0.026123544

layers.1.pool.1.conv.4.weight f4 [64]
000000 db c6 7b 3f 3f e2 80 3f 03 02 82 3f 24 6e 80 3f
       0.98350304 1.0069045 1.0156864 1.0033612
000010 cc a6 80 3f c3 d2 82 3f 1a a5 7e 3f af 0c 80 3f
       1.0050902 1.0220569 0.99470675 1.0003871
000020 a2 02 83 3f 03 89 82 3f 70 ae 84 3f 1e 7d 83 3f
       1.0235178 1.0198063 1.0365734 1.0272558
000030 ce 22 80 3f cb 7c 82 3f 17 6e 85 3f 32 e6 82 3f
       1.0010622 1.0194334 1.0424222 1.02265
000040 9a d0 81 3f 9f 0b 7d 3f e3 30 7e 3f 51 7e 81 3f
       1.0141785 0.9884586 0.99293345 1.0116674
000050 6f 09 80 3f c1 d9 80 3f c9 4f 87 3f 29 e2 81 3f
       1.0002879 1.0066453 1.0571223 1.0147144
000060 7a 12 82 3f 7d b1 80 3f 26 ca 7f 3f 12 be 81 3f
       1.0161889 1.0054165 0.9991783 1.013613
000070 df b7 80 3f d7 18 84 3f 17 79 7e 3f 97 9a 81 3f
       1.0056113 1.032008 0.9940352 1.0125302
000080 42 51 7e 3f 36 1f 80 3f 61 76 84 3f d2 c6 80 3f
       0.9934274 1.0009525 1.0348626 1.0060675
000090 a1 67 7f 3f c9 7d 85 3f cb 8a 81 3f eb 54 82 3f
       0.997675 1.0429012 1.0120481 1.0182165
0000a0 6b 27 7c 3f 51 42 80 3f a6 b0 7d 3f 03 70 82 3f
       0.9849765 1.0020238 0.9909767 1.0190433
0000b0 44 d2 7c 3f 3a 23 82 3f 62 40 7d 3f 09 0b 81 3f
       0.9875834 1.0167 0.98926365 1.0081493
0000c0 c4 3a 81 3f bd ae 82 3f cd d5 85 3f a2 7e 82 3f
       1.0096059 1.0209576 1.0455872 1.0194895
0000d0 ea e9 84 3f 66 de 83 3f 9f 9b 7d 3f 95 15 82 3f
       1.0383885 1.0302246 0.99065584 1.0162836
0000e0 c2 5d 7f 3f 1b 69 81 3f e1 fb 80 3f 42 bb 7d 3f
       0.9975244 1.0110201 1.0076867 0.9911386
0000f0 d1 5c 80 3f 06 d1 84 3f 7c 17 81 3f cf 3f 7e 3f
       1.0028325 1.0376289 1.0085292 0.99316114
